other_algorithms/ddpg/ddpg-2/checkpoint_actor.pth (torch, 8280 bytes, 3 tensors)

fc1.weight f4 [256, 4]
-0.021535773 0.015505277 -0.0007119448 -0.058235567 0.022473238 0.019995183 -0.0021836064 -0.12014971
0.10049984 0.10206962 -0.101381905 -0.15110037 0.056844886 0.097734764 -0.03610846 -0.009570789
0.034719467 -0.0021321923 -0.062136002 -0.013255581 0.036831535 -0.050626956 0.049865134 -0.03718683
0.013553527 0.14228119 -0.09055662 -0.1428014 0.00674399 0.13180968 -0.05907381 -0.12557162
-0.17962542 -0.17437059 0.12788434 0.25603124 -0.056990452 -0.033326685 -0.045143023 0.03607396
0.04580638 0.0079202885 0.004877112 -0.017448448 0.026151791 0.023130223 -0.036212556 0.014506288
0.031533066 0.09124817 -0.03968149 -0.014961272 0.10066787 0.08610433 -0.08643618 -0.13247304
0.06817302 0.11776678 -0.02896577 -0.13055211 0.00826522 0.01895158 0.01658953 -0.024886355
-0.07456158 0.025235776 0.04695004 0.0006049705 0.05455426 0.015727382 0.021523062 -0.086033836
-0.013046391 -0.018140674 0.037306353 -0.021500707 0.00968766 0.108262345 0.0045526135 -0.02944249
0.017948598 0.03885591 0.03297028 0.0034594461 0.09402744 0.098404475 -0.007871906 -0.061051983
0.010361336 -0.032535963 -0.052034736 0.016742595 -0.21583457 -0.2584061 0.21026285 0.28040615
0.046143327 0.0035379524 0.032993816 0.01066732 -0.061245896 0.04588066 -0.03156712 0.012914844
0.0044112206 0.055243477 0.03743702 0.025876895 0.061917424 0.1188778 -0.084327355 -0.07197692
-0.055275 -0.0017182454 0.0051621944 0.028335452 0.0070324154 0.038032036 -0.032607142 0.006931152
0.024028875 0.05873225 0.041954383 0.04413274 0.052453183 -0.0004970953 0.0566096 0.053480357
0.0028153467 -0.009542984 -0.0060570408 0.020258714 -0.0014119206 0.08188901 -0.03951263 -0.11117258
0.005479172 -0.024443835 0.008843787 0.040270753 0.105571285 0.11922767 -0.099616915 -0.11019453
0.03024692 0.16780007 0.072128266 -0.23152024 0.016558874 0.079169706 -0.0005217676 -0.008591565
0.008242792 0.1325089 -0.057079185 -0.13020274 -0.19339687 -0.23630448 0.18193506 0.19072245
0.005673719 0.011272364 -0.041851837 -0.020162858 0.063054636 0.036345236 -0.042749412 -0.09774295
-0.015419781 0.12497366 -0.0159646 -0.06141093 -0.04013212 -0.028029079 0.07241015 -0.058564194
-0.007586658 0.030938879 0.038523875 0.060025766 0.075855695 0.13588749 -0.09167835 -0.06783369
-0.058615305 -0.0036920458 0.024163201 0.0397397 -0.031937156 -0.048019763 0.07362653 0.021576071
-0.043329746 0.014928445 0.0025263801 0.0056418926 0.042822972 0.037970155 0.045955654 -0.003508649
0.046546865 0.035269696 -0.034030512 -0.037325792 0.050610207 0.0060190484 0.016010307 -0.058067508
-0.027605537 0.059636734 -0.018815426 -0.06533472 0.059627987 0.045750543 0.059310324 0.03178423
0.071735136 0.07729023 -0.022513751 -0.15631127 -0.015701346 -0.033457763 -0.057949744 -0.04450091
0.06485936 0.07272581 0.009779517 -0.018759279 0.010152892 0.04099958 -0.09419287 -0.13043763
0.00889881 0.023891186 -0.025697093 -0.057448324 0.078593 0.13014568 -0.00851142 -0.0129453875
0.11948301 0.12944885 -0.089783415 -0.14699994 0.07413397 0.014318116 -0.010794988 -0.0046130926
0.041926 0.052148525 -0.05657114 -0.01195766 -0.048727833 -0.0036558285 -0.055079453 0.015261948
00000000: ca6b b0bc d809 7e3c cfa1 3aba 6b88 6ebd
00000010: cc19 b83c f0cc a33c d61a 0fbb 0d11 f6bd
00000020: dcd2 cd3d e009 d13d 51a1 cfbd 0eba 1abe
00000030: 2fd6 683d 2a29 c83d 77e6 13bd ccce 1cbc
00000040: 0036 0e3d 40bc 0bbb 5282 7ebd f02d 59bc
00000050: aadc 163d 365e 4fbd 623f 4c3d 3851 18bd
00000060: 9d0f 5e3c 29b2 113e c075 b9bd 883a 12be
00000070: b0fc dc3b 1ef9 063e 61f7 71bd d995 00be
00000080: baef 37be 348e 32be 1df4 023e 8716 833e
00000090: d26e 69bd 9081 08bd e4e7 38bd 4ac2 133d
000000a0: 799f 3b3d 19c4 013c 2ed0 9f3b 0cf0 8ebc
000000b0: 483c d63c 987b bd3c 9e53 14bd c8ab 6d3c
000000c0: d128 013d 52e0 ba3d 0f89 22bd 1f20 75bc
000000d0: f52a ce3d 7857 b03d 7405 b1bd 03a7 07be
000000e0: 4c9e 8b3d b62f f13d 9f49 edbc 74af 05be
000000f0: d86a 073c 5840 9b3c c4e6 873c 78de cbbc
00000100: beb3 98bd 42bb ce3c af4e 403d e296 1e3a
00000110: 4a74 5f3d b6d6 803c 2251 b03c 8232 b0bd
00000120: 88c0 55bc c09b 94bc 8cce 183d 4022 b0bc
00000130: feb8 1e3c a6b8 dd3d 172e 953b 6031 f1bc
00000140: f008 933c 6027 1f3d d80b 073d e0b7 623b
00000150: 7591 c03d 4988 c93d 2bf9 00bc a511 7abd
00000160: 98c2 293c 6e44 05bd 6022 55bd c427 893c
00000170: bd03 5dbe ce4d 84be 254f 573e 6591 8f3e
00000180: c900 3d3d fedc 673b 8624 073d fcc5 2e3c
00000190: fadc 7abd 5ced 3b3d 864c 01bd c898 533c
000001a0: 008c 903b fc46 623d 9057 193d c8fb d33c
000001b0: 209d 7d3d 3476 f33d d2b3 acbd a368 93bd
000001c0: 0a68 62bd c036 e1ba a027 a93b c01f e83c
000001d0: 2d70 e63b 7bc7 1b3d 118f 05bd b81e e33b
000001e0: 34d8 c43c 3a91 703d 5cd8 2b3d 88c4 343d
000001f0: 26d9 563d 804f 02ba 78df 673d 380e 5b3d
00000200: ae81 383b 2d5a 1cbc 247a c6bb 9af5 a53c
00000210: 3210 b9ba 6db5 a73d ffd7 21bd 73ae e3bd
00000220: a08a b33b 703e c8bc 88e5 103c f2f2 243d
00000230: c235 d83d a32d f43d f403 ccbd abad e1bd
00000240: 64c8 f73c c8d3 2b3e fcb7 933d a413 6dbe
00000250: 7aa6 873c ba23 a23d 3bc7 08ba a3c3 0cbc
00000260: c70c 073c 6ab0 073e ddcb 69bd de53 05be
00000270: d409 46be cdf9 71be 2f4d 3a3e bf4c 433e
00000280: 9bea b93b b9af 383c d56c 2bbd 942c a5bc
00000290: ca22 813d bede 143d 021a 2fbd 752d c8bd
000002a0: 40a3 7cbc 31f2 ff3d 31c8 82bc 078a 7bbd
000002b0: 9461 24bd 3d9d e5bc c64b 943d 02e1 6fbd
000002c0: 8099 f8bb 8873 fd3c 36cb 1d3d 94dd 753d
000002d0: 3b5a 9b3d 1726 0b3e dcc1 bbbd 64ec 8abd
000002e0: 9a16 70bd 40f6 71bb e8f1 c53c 18c6 223d
000002f0: 89d0 02bd 5fb0 44bd 82c9 963d 4dc0 b03c
00000300: 887a 31bd 7096 743c a091 253b a0df b83b
00000310: 2467 2f3d 9886 1b3d ff3b 3c3d 5df1 65bb
00000320: eda7 3e3d f576 103d 9463 0bbd eee2 18bd
00000330: a64c 4f3d 703b c53b 0c28 833c 32d8 6dbd
00000340: 0225 e2bc a645 743d cf22 9abc 36ce 85bd
00000350: 7a3c 743d ec64 3b3d 62ef 723d 2e30 023d
00000360: dfe9 923d 574a 9e3d c26e b8bc 1010 20be
00000370: 1ca0 80bc 020b 09bd b65c 6dbd 9646 36bd
00000380: fcd4 843d 45f1 943d 443a 203c 0fad 99bc
00000390: 5158 263c 2def 273d 31e8 c0bd 7191 05be
000003a0: 50cc 113c 73b7 c33c b682 d2bc ef4e 6bbd
000003b0: 5ef5 a03d e944 053e 7c73 0bbc e418 54bc
000003c0: 82b3 f43d 3d8e 043e 5ee0 b7bd 2787 16be
000003d0: 8dd3 973d 8896 6a3c 76dd 30bc 6d29 97bb
000003e0: 99ba 2b3d b199 553d 24b7 67bd 10ea 43bc
000003f0: d696 47bd a096 6fbb fe9a 61bd 400d 7a3c

fc1.bias f4 [256]
-0.13348317 0.7026032 0.20580675 0.48855904 -0.20714319 -0.050168633 0.3200755 0.58756834
0.28662917 -0.40354902 0.553047 -0.35392433 0.67234015 0.4016294 0.6929175 -0.2799387
0.22549745 0.13743782 -0.07652092 0.48843625 -0.3442312 0.24547903 -0.14262539 0.17972323
0.34775677 -0.17867386 -0.29589552 0.54038787 -0.23031694 -0.001665923 -0.38930988 -0.40622097
0.46370476 0.5591742 -0.17997515 0.08743234 0.16326518 0.43240705 0.34156856 0.2975532
0.6515023 0.6393488 0.35670128 0.06153999 -0.47200173 0.55346954 -0.39288414 0.1829471
-0.45093614 0.44454023 0.44687656 -0.3512054 0.36166105 -0.1637153 0.25054586 -0.16984224
0.61109406 0.51050127 0.6449866 0.48243225 0.3254899 0.53125596 0.5723046 -0.4661857
0.5024681 -0.21575475 -0.25998545 0.45711455 -0.39676946 -0.13943958 -0.14562935 0.6070657
-0.41873956 0.2169724 -0.11690068 0.2512671 -0.112630665 -0.12130231 -0.1900211 0.52459675
-0.33527964 0.53584826 0.49261734 -0.10318877 0.6466069 0.53756267 0.28494537 0.70877063
0.42194182 0.07403602 0.5718694 0.4249292 0.4857126 0.40540913 0.4278881 0.5131318
0.6899779 0.6496837 0.34232453 -0.28129226 -0.41867816 -0.4620716 0.52258104 0.38468143
0.5676122 0.5587225 -0.30962086 0.42213586 0.25364694 -0.30316436 0.31795558 -0.4649886
0.2874784 0.636601 0.11672588 -0.20401907 0.57540435 0.36993873 -0.3569243 0.25478628
0.6410948 0.1642417 -0.28353196 -0.2569313 -0.27563673 -0.4131201 0.6398748 -0.2946326
-0.12016851 0.050233703 -0.17967945 0.64338934 -0.3499264 0.29989964 0.61591125 0.24628155
0.040083513 0.2878559 -0.43342328 -0.38210738 -0.17364365 -0.42903864 0.18464853 -0.30792302
0.29822138 0.17700875 -0.36545438 -0.3277418 0.6181557 0.48279607 -0.43341756 0.43668425
0.03058978 -0.27092087 0.63441086 -0.21663725 0.6643069 -0.22828388 -0.37164193 0.23447616
0.48839805 0.4200388 0.44110084 0.42656067 -0.42798334 0.48632222 0.21273115 -0.3235677
0.45823613 0.3507493 -0.20600408 -0.1872884 -0.42194504 0.46858788 0.39259928 -0.4336065
0.6377866 0.43146238 0.43911085 -0.099568725 0.3553085 0.46217558 0.34680954 0.5904267
-0.24979651 -0.2532013 0.42817146 0.24494387 -0.01249782 0.67749435 -0.108249046 0.15977074
-0.40702933 0.37938946 -0.31501907 -0.25781614 -0.44691807 0.39914182 0.17573848 0.65629995
0.47042692 0.07627101 -0.3813101 -0.20786726 0.35977945 0.31142908 0.6981111 -0.4864387
-0.22148013 0.49090198 0.21086141 -0.23098165 0.6046034 0.40750197 0.46795538 0.56042886
-0.18983656 0.30677998 0.54366666 -0.30583268 0.5545956 -0.46398336 0.17683451 0.53763354
0.40868372 0.5428306 -0.17692012 0.6987775 -0.075502574 0.6435994 0.22543441 -0.1343379
0.22704148 0.63590884 0.1592681 0.2573628 0.22377786 -0.3970713 0.21173322 0.3973832
0.5471876 0.3045687 -0.42710918 0.08836306 0.26587513 0.65815943 -0.2880202 -0.40878904
0.2460557 0.66678554 0.5263949 -0.08624947 0.4499304 -0.1921888 0.11421049 -0.49547505
00000000: d0af 08be cedd 333f 01bf 523e 6924 fa3e
00000010: 581d 54be a07d 4dbd f0e0 a33e e16a 163f
00000020: 0fc1 923e fa9d cebe 7d94 0d3f 9235 b5be
00000030: 7c1e 2c3f 5ea2 cd3e 0b63 313f 2054 8fbe
00000040: cee8 663e 80bc 0c3e 00b7 9cbd 5114 fa3e
00000050: 123f b0be db5e 7b3e 640c 12be 5e09 383e
00000060: 2d0d b23e 48f6 36be 9e7f 97be dc56 0a3f
00000070: 34d8 6bbe 1a5b daba a053 c7be 32fc cfbe
00000080: b66a ed3e 0a26 0f3f 684b 38be ba0f b33d
00000090: fd2e 273e 7564 dd3e 13e2 ae3e e558 983e
000000a0: dbc8 263f 5dac 233f 8da1 b63e 5b11 7c3d
000000b0: 36aa f1be 2eb0 0d3f 1c28 c9be 7c56 3b3e
000000c0: 1ae1 e6be c79a e33e 01cd e43e 32d1 b3be
000000d0: a32b b93e fca4 27be 8c47 803e 20eb 2dbe
000000e0: a970 1c3f 36b0 023f d81d 253f 5c01 f73e
000000f0: 9da6 a63e 6400 083f 8e82 123f e4af eebe
00000100: c0a1 003f d0ee 5cbe d01c 85be eb0a ea3e
00000110: 5e25 cbbe 40c9 0ebe dc1f 15be a868 1b3f
00000120: 0865 d6be 032e 5e3e a069 efbd 15a6 803e
00000130: e8aa e6bd 586d f8bd e494 42be f94b 063f
00000140: c6a9 abbe 5a2d 093f 5738 fc3e a254 d3bd
00000150: 0888 253f b59d 093f 5ce4 913e fe71 353f
00000160: c208 d83e 32a0 973d 0866 123f 5290 d93e
00000170: 52af f83e c991 cf3e 2614 db3e 9b5c 033f
00000180: 64a2 303f ac51 263f 2945 af3e 8a05 90be
00000190: fc5c d6be a694 ecbe dfc7 053f f7f4 c43e
000001a0: 084f 113f 7008 0f3f a086 9ebe 3122 d83e
000001b0: 03de 813e 5c38 9bbe 13cb a23e fc12 eebe
000001c0: 5e30 933e 48f8 223f fa0d ef3d 60ea 50be
000001d0: b34d 133f 9c68 bd3e c8be b6be 5973 823e
000001e0: ca1e 243f fa2e 283e 1a2b 91be 808c 83be
000001f0: 4220 8dbe 7a84 d3be d6ce 233f 16da 96be
00000200: e81a f6bd dbc1 4d3d e4fd 37be 2ab5 243f
00000210: 8e29 b3be 728c 993e 5cac 1d3f 3b31 7c3e
00000220: 9c2e 243d d961 933e a8e9 ddbe 94a3 c3be
00000230: a4cf 31be f4aa dbbe 8114 3d3e 16a8 9dbe
00000240: 79b0 983e c841 353e d61c bbbe c6cd a7be
00000250: 743f 1e3f 0c31 f73e e8e8 ddbe 1495 df3e
00000260: 6b97 fa3c 24b6 8abe c068 223f 28d6 5dbe
00000270: 0410 2a3f 40c3 69be da47 bebe 851a 703e
00000280: 4f0f fa3e 530f d73e f8d7 e13e 2966 da3e
00000290: a220 dbbe 3aff f83e 32d6 593e aaaa a5be
000002a0: ed9d ea3e 6a95 b33e bcf2 52be 88c8 3fbe
000002b0: 2e09 d8be c0ea ef3e c602 c93e ac01 debe
000002c0: fc45 233f a3e8 dc3e 23d3 e03e b0ea cbbd
000002d0: ffea b53e 47a2 ec3e 0591 b13e 3426 173f
000002e0: a8ca 7fbe 9aa3 81be 4a39 db3e 91d2 7a3e
000002f0: a8c3 4cbc 4570 2d3f adb1 ddbd f19a 233e
00000300: 2666 d0be 563f c23e 2e4a a1be 7a00 84be
00000310: 72d2 e4be 515c cc3e caf4 333e 4603 283f
00000320: ccdb f03e fa33 9c3d 143b c3be 28db 54be
00000330: 0335 b83e a273 9f3e 69b7 323f 7e0e f9be
00000340: b0cb 62be 8157 fb3e 0eec 573e 7486 6cbe
00000350: 4ac7 1a3f 19a4 d03e d997 ef3e 4478 0f3f
00000360: 8464 42be 4412 9d3e bd2d 0b3f 1a96 9cbe
00000370: faf9 0d3f 3a8f edbe 1b14 353e 5aa2 093f
00000380: fe3e d13e f2f6 0a3f 8c2a 35be 15e3 323f
00000390: 18a1 9abd eec2 243f 47d8 663e e08f 09be
000003a0: 907d 683e ecca 223f 2d17 233e 0fc5 833e
000003b0: 0626 653e ee4c cbbe 98d0 583e d075 cb3e
000003c0: 7d14 0c3f 6ef0 9b3e 0eae dabe b1f7 b43d
000003d0: c920 883e 237d 283f 6277 93be cc4c d1be
000003e0: 07f6 7b3e 75b2 2a3f d1c1 063f 90a3 b0bd
000003f0: 475d e63e 24cd 44be 30e7 e93d e8ae fdbe

fc2.weight f4 [1, 256]
0.007469599 -0.08130485 -0.08311445 -0.08835004 -0.002539896 -0.0016206007 -0.080056384 -0.076599754
-0.26275626 -0.0007357514 -0.09219436 0.0024611244 -0.0845342 -0.08022607 -0.07890238 -0.0024624118
-0.07099873 -0.053514153 -0.0027453064 -0.084006876 -0.0018504199 -0.0846226 -0.0017399115 -0.2475437
-0.08618024 0.0027285565 0.0028344325 -0.08145604 0.0018768257 0.00091228547 0.0004920498 0.0016240304
-0.09230827 -0.08151293 0.0016584413 -0.05763278 0.30945292 -0.09066407 -0.08011423 -0.26300767
-0.089956775 -0.082595885 -0.08498148 -0.024603097 0.0027761832 -0.080768235 0.0022279827 -0.053652517
0.0013797316 -0.090579666 -0.08938538 0.0029404343 -0.087805904 -0.0006666441 -0.08538976 -0.00092703477
-0.08491048 -0.08291006 -0.0853651 -0.0869464 -0.08062551 -0.09267562 -0.08803096 0.0014504982
-0.09168871 0.0002732352 0.0023269264 -0.08915819 0.00015365517 -0.0025409465 0.0011037891 -0.08519947
0.0026721412 0.27693152 -0.0015582333 -0.07268414 0.0016135061 0.0029582877 -0.00040119552 -0.09119086
-0.0022758595 -0.08711553 -0.07904391 0.0014486231 -0.0836645 -0.08454506 -0.08669079 -0.084385954
-0.08674226 -0.0861968 -0.0804498 -0.08504657 -0.08203744 -0.08276799 -0.090086006 -0.08172737
-0.07861831 -0.08650597 -0.08526192 -0.0014976818 0.000107851265 -2.2189737e-05 -0.08156781 -0.08279293
-0.080159575 -0.08211973 -0.0014254239 -0.09169726 -0.07658651 -0.0014221859 -0.08609235 0.002185809
-0.26446158 -0.08331397 -0.039176162 -0.0027163536 -0.08731464 -0.082567096 0.0026927036 -0.26810896
-0.07889226 -0.0793834 0.0009007348 -0.0006777227 0.002783285 -0.0022887923 -0.084693655 -0.002888671
0.0004332565 -0.016962238 0.0022472567 -0.08442984 0.0018331815 -0.2667856 -0.08527116 -0.0842585
-0.018653471 -0.26723433 0.0024785192 5.450213e-05 -0.0017789258 -0.0023514044 -0.07986976 -0.0012082675
-0.08356005 -0.06452734 0.00073015166 0.00060208084 -0.08012084 -0.08100869 0.0020135248 -0.0918896
0.0031227767 5.3948166e-05 -0.08314654 -0.002602297 -0.08715541 -0.001594295 0.001929804 -0.25840527
-0.081434816 -0.07872238 -0.0903875 -0.08136689 0.0029956927 -0.08347253 -0.08206988 0.0011400386
-0.07992972 -0.087355 -0.0017365826 -0.00083822146 -0.0014770925 -0.08260999 -0.08683483 -0.0005609901
-0.08297205 -0.07890886 -0.08722538 0.00052071514 -0.08530766 -0.08155201 -0.084640585 -0.083197825
-0.0018973453 -0.002816709 -0.08287778 -0.0824651 0.010799942 -0.086772285 -0.0046453224 -0.04533267
0.0012035666 -0.08815521 -0.0026715114 -0.00061036635 0.00036669124 -0.0872094 -0.0795447 -0.07894844
-0.08137463 -0.008506528 -0.0019049278 0.00021095002 -0.08539685 -0.07734504 -0.08350611 -0.002728117
0.00088581775 -0.08645666 -0.25747666 0.0025923639 -0.08468723 -0.082179666 -0.08307349 -0.08366679
-0.0027732379 -0.0811103 -0.09225942 0.002081938 -0.078544855 -0.0009773286 -0.03599332 -0.08833789
-0.09027435 -0.08363088 -0.0023603418 -0.08374107 0.0028708763 -0.08846737 -0.080843 -0.0018158591
-0.24113557 -0.083587 -0.07959952 -0.084337525 -0.07748647 0.0023768942 -0.2411695 -0.08975516
-0.086497724 -0.27289066 0.0029367597 0.032705337 -0.2568347 -0.08293225 -0.0021803638 -0.00023096538
-0.08557368 -0.086621866 -0.082331456 0.00025275207 -0.080401644 -0.0022019874 -0.027221685 -0.0027217641
00000000: 8ac3 f43b 2883 a6bd e937 aabd def0 b4bd
00000010: 6274 26bb 566a d4ba 9af4 a3bd 55e0 9cbd
00000020: fd87 86be 71df 40ba 66d0 bcbd d14a 213b
00000030: 4420 adbd 914d a4bd 9297 a1bd 6a60 21bb
00000040: c867 91bd a831 5bbd 99ea 33bb cc0b acbd
00000050: ca89 f2ba 9d4e adbd be0d e4ba 187c 7dbe
00000060: 447f b0bd 95d1 323b e3c1 393b 6dd2 a6bd
00000070: d2ff f53a 7126 6f3a e7fc 003a 6bdd d43a
00000080: 1e0c bdbd 40f0 a6bd 0e60 d93a 5a10 6cbd
00000090: 9d70 9e3e 15ae b9bd ee12 a4bd f1a8 86be
000000a0: 423b b8bd 0828 a9bd c50a aebd 6f8c c9bc
000000b0: a0f0 353b d169 a5bd 5903 123b bec2 5bbd
000000c0: 1cd8 b43a d581 b9bd af0f b7bd 4db4 403b
000000d0: 95d3 b3bd bac1 2eba d4e0 aebd 4004 73ba
000000e0: 8ce5 adbd c0cc a9bd e6d3 aebd f410 b2bd
000000f0: fd1e a5bd b7cc bdbd 9349 b4bd a51e be3a
00000100: 4ac7 bbbd 0241 8f39 597f 183b 9298 b6bd
00000110: 7f1e 2139 0286 26bb 04ad 903a 0f7d aebd
00000120: 171f 2f3b f8c9 8d3e a23d ccba 6cdb 94bd
00000130: 487c d33a d5df 413b 8d57 d2b9 46c2 babd
00000140: 9626 15bb a169 b2bd c6e1 a1bd badf bd3a
00000150: 4b58 abbd f625 adbd f18a b1bd 8bd2 acbd
00000160: eda5 b1bd f387 b0bd ddc2 a4bd e52c aebd
00000170: 3f03 a8bd 4482 a9bd 037f b8bd ae60 a7bd
00000180: a302 a1bd 0b2a b1bd cd9d aebd dd4d c4ba
00000190: 352e e238 1924 bab7 060d a7bd 578f a9bd
000001a0: b42a a4bd 642e a8bd 4ad5 baba c6cb bbbd
000001b0: 63d9 9cbd a468 baba 3051 b0bd ca3f 0f3b
000001c0: 8267 87be 84a0 aabd 2f77 20bd da04 32bb
000001d0: 05d2 b2bd f018 a9bd 1278 303b 9445 89be
000001e0: 4492 a1bd c493 a2bd 4a1f 6c3a 33a9 31ba
000001f0: c667 363b 90ff 15bb de73 adbd db4f 3dbb
00000200: b426 e339 64f4 8abc b646 133b 8de9 acbd
00000210: 5d47 f03a 1f98 88be a5a2 aebd b88f acbd
00000220: 2acf 98bc f0d2 88be a76e 223b 3799 6438
00000230: d82a e9ba 051a 1abb c292 a3bd bb5e 9eba
00000240: 8821 abbd e926 84bd a667 3f3a f6d4 1d3a
00000250: 6516 a4bd e2e7 a5bd 57f5 033b 9d30 bcbd
00000260: 80a7 4c3b 6746 6238 bc48 aabd 4d8b 2abb
00000270: 897e b2bd aaf7 d0ba 7af1 fc3a b24d 84be
00000280: 4cc7 a6bd 3339 a1bd 151d b9bd afa3 a6bd
00000290: 6253 443b a5f3 aabd 4114 a8bd 596d 953a
000002a0: 31b2 a3bd 2ee7 b2bd 0b9e e3ba 17bc 5bba
000002b0: 009b c1ba 6d2f a9bd 76d6 b1bd 690f 13ba
000002c0: 40ed a9bd f89a a1bd 38a3 b2bd 9a80 083a
000002d0: c8b5 aebd bd04 a7bd 0b58 adbd 9f63 aabd
000002e0: 58b0 f8ba 8998 38bb d3bb a9bd 76e3 a8bd
000002f0: 3df2 303c abb5 b1bd ca37 98bb c0ae 39bd
00000300: fec0 9d3a b88a b4bd 8614 2fbb fe00 20ba
00000310: 7740 c039 d89a b2bd 55e8 a2bd b8af a1bd
00000320: bea7 a6bd f75e 0bbc c5ae f9ba 7732 5d39
00000330: 8be4 aebd 1467 9ebd 4005 abbd 35ca 32bb
00000340: 3936 683a 3010 b1bd fbd3 83be a6e4 293b
00000350: 8070 adbd d04d a8bd 6f22 aabd 7e59 abbd
00000360: 36bf 35bb 281d a6bd 82f2 bcbd 2071 083b
00000370: 20dc a0bd b519 80ba bb6d 13bd 7fea b4bd
00000380: c2e1 b8bd ab46 abbd f7af 1abb 7080 abbd
00000390: 5025 3c3b 612e b5bd 0491 a5bd 1f02 eeba
000003a0: 3eec 76be a92f abbd 1305 a3bd 27b9 acbd
000003b0: 3ab1 9ebd abc5 1b3b 23f5 76be 8ed1 b7bd
000003c0: b825 b1bd 53b8 8bbe a776 403b 08f6 053d
000003d0: d67f 83be 62d8 a9bd 6fe4 0ebb 4c2f 72b9
000003e0: 4141 afbd ce66 b1bd 659d a8bd cf83 8439
000003f0: 9ea9 a4bd 384f 10bb 0300 dfbc a05f 32bb
