other_algorithms/ddpg/ddpg-2/checkpoint_critic.pth (torch, 404664 bytes, 7 tensors)

fcs1.weight f4 [256, 4]
-0.047190573 0.0042845993 0.26304936 0.025605848 0.047174197 0.028739879 -0.20075734 -0.082371734
0.005520332 -0.016564408 0.20242009 0.045822047 0.05537316 0.060986996 -0.25849319 -0.051780544
1.0648307e-05 0.003152948 0.00061807886 -0.0027196305 -0.0051427637 -0.03676318 -0.40483686 -0.048155285
0.07228236 0.024612151 -0.41061667 -0.086600065 0.05164168 -0.0066534225 -0.09902542 -0.0078118695
-0.0012271149 0.0019066789 0.0010727801 -0.0008310116 -0.09244481 -0.05551259 0.312445 0.086326286
0.042078547 0.06631826 0.023054156 0.0273279 -0.08352171 -0.03219 0.30414045 0.06340288
0.040471047 0.00023218417 -0.105205975 -0.045418948 0.108547494 0.060711257 -0.28657478 -0.089448966
0.09156751 0.044655595 -0.26739016 -0.07953324 -0.080448784 -0.02699654 0.300269 0.059202004
0.046274267 0.06753005 0.25209597 0.05108717 0.0006735255 -0.0002454316 -0.00015409855 0.00011159081
-0.08860627 -0.028742883 0.30995965 0.061000034 0.04406849 0.08555505 -0.06740066 0.0020704065
0.0014077821 -0.0004307812 -0.0006835965 0.0013755288 -0.041607797 0.055701353 0.4775874 0.044137295
0.00012115487 0.002864285 -0.0006280786 -0.0003926099 0.0010377961 0.0020551565 0.0015943119 0.0015487222
0.054010626 0.06568763 -0.24291296 -0.055557173 -0.05098517 0.00090878183 0.26019976 0.02805942
-0.0023706958 0.0017060334 0.008859754 0.001190254 0.06596424 0.016287586 -0.24341221 -0.07354756
-0.016257871 -0.0151317185 0.23539625 0.04724673 0.11664177 0.0762239 -0.6405119 -0.13914043
-0.09800446 -0.039407033 0.32117662 0.071792625 0.064142175 -0.0012909031 -0.08685059 -0.0010643806
0.020981006 0.038805485 0.3920374 0.07415798 0.052259047 0.09630004 -0.07351463 0.01070356
-0.09170398 -0.057438165 0.30989966 0.088030815 0.07986622 0.0048419014 -0.072668985 -0.004518477
-0.00010011547 0.0004322202 -6.95766e-05 2.0195752e-05 0.0089751715 -0.045699004 -0.10918304 0.098453715
-0.00936201 0.057182822 0.5163791 0.06224287 0.00014415842 0.0033242034 0.019171488 0.0016198817
0.07027852 0.0023197138 -0.25669003 -0.09056437 0.08626675 0.032453347 -0.2732908 -0.09394289
0.032556985 -0.03978399 -0.40179208 -0.049583346 -0.0006759701 0.0033958454 0.0077020447 0.0011946297
0.0005117826 0.0008964582 -0.00013904287 -0.000747606 0.10509789 -0.024892738 -0.28707725 -0.059887197
-0.037442025 -0.041620694 -0.010998374 0.03795509 -0.011512568 0.0010690633 0.5125084 0.0033156327
-0.08304962 -0.02880023 0.30266476 0.06036003 0.03796282 -0.015215873 0.043430883 0.08185315
0.074906304 -0.0380287 0.25522852 0.051976822 -0.03656375 -0.024293382 -0.039302055 0.017584328
0.05850249 0.089271955 -0.010796887 0.013993198 -0.00017644964 0.0012535263 -0.00012019519 -0.00043614823
0.049339052 -0.007832173 -0.43239596 -0.022063691 0.00018304275 0.00072103745 -5.6144477e-06 0.0005504635
0.047083538 0.031434514 -0.26483524 -0.091783054 0.03968166 -0.020272603 0.07483612 0.007310389
0.04344438 0.06897179 -0.1659294 -0.047235537 0.09496415 0.026410393 -0.28686255 -0.119270995
-0.010442137 0.03421788 0.55190516 0.039576054 0.04319153 0.06544603 0.08236158 0.038951807
0.045023877 0.024307441 -0.25415328 -0.09793118 -0.0044410205 0.0007904542 0.01065937 0.0023712066
00000000: e74a 41bd d365 8c3b 68ae 863e 5bc3 d13c
00000010: bb39 413d e56f eb3c 5593 4dbe 83b2 a8bd
00000020: e7e3 b43b 15b2 87bc 3647 4f3e e6af 3b3d
00000030: f7ce 623d 80cd 793d 3859 84be d617 54bd
00000040: 21a6 3237 b1a1 4e3b 9206 223a d43b 32bb
00000050: a184 a8bb fd94 16bd c746 cfbe 7a3e 45bd
00000060: c608 943d 6c9f c93c 593c d2be 605b b1bd
00000070: 3a86 533d f404 dabb d7cd cabd b6fa ffbb
00000080: 25d7 a0ba 87e9 f93a 879c 8c3a 3fd8 59ba
00000090: b453 bdbd 2b61 63bd cbf8 9f3e d6cb b03d
000000a0: 8e5a 2c3d ded1 873d 12dc bc3c c3de df3c
000000b0: 6e0d abbd a9d9 03bd 4cb8 9b3e 5fd9 813d
000000c0: f8c4 253d 7776 7339 3b76 d7bd 3809 3abd
000000d0: 264e de3d 5eac 783d eeb9 92be 0531 b7bd
000000e0: bf87 bb3d c9e8 363d 5de7 88be 53e2 a2bd
000000f0: 55c2 a4bd d927 ddbc dcbc 993e cd7d 723d
00000100: 168a 3d3d 324d 8a3d b912 813e c840 513d
00000110: 888f 303a 46ad 80b9 8495 21b9 dc05 ea38
00000120: 3477 b5bd 3276 ebbc 08b3 9e3e 2cdb 793d
00000130: 2981 343d 7c37 af3d 5b09 8abd a8af 073b
00000140: 5485 b83a 79da e1b9 6233 33ba 164b b43a
00000150: f06c 2abd 1a27 643d 5686 f43e 4fc9 343d
00000160: 8714 fe38 bab6 3b3b a4a5 24ba 35d7 cdb9
00000170: a906 883a ceaf 063b 3bf8 d03a 7efe ca3a
00000180: 3f3a 5d3d 3c87 863d 2dbe 78be eb8f 63bd
00000190: d3d5 50bd 513b 6e3a e738 853e dedc e53c
000001a0: ad5d 1bbb fb9c df3a 8028 113c 4c02 9c3a
000001b0: 4218 873d 8b6d 853c 0d41 79be 1aa0 96bd
000001c0: 3a2f 85bc 07eb 77bc b70b 713e ca85 413d
000001d0: e1e1 ee3d 471b 9c3d 96f8 23bf d47a 0ebe
000001e0: 90b6 c8bd 4569 21bd 4371 a43e 0308 933d
000001f0: f95c 833d 8533 a9ba b9de b1bd b082 8bba
00000200: 5ce0 ab3c 80f2 1e3d 20b9 c83e 24e0 973d
00000210: 950d 563d f538 c53d d78e 96bd fc5d 2f3c
00000220: 4ccf bbbd 4844 6bbd 2bab 9e3e 8049 b43d
00000230: e790 a33d d0a8 9e3b 7ad3 94bd bb0f 94bb
00000240: 15f5 d1b8 9d9b e239 a7e9 91b8 0c6a a937
00000250: 990c 133c e12e 3bbd 5c9b dfbd 1aa2 c93d
00000260: 1e63 19bc 8938 6a3d 6c31 043f 61f2 7e3d
00000270: 3b29 1739 e1da 593b 860d 9d3c 3652 d43a
00000280: 2fee 8f3d 5706 183b e06c 83be d079 b9bd
00000290: 9fac b03d cded 043d c6ec 8bbe 2165 c0bd
000002a0: 795a 053d 89f4 22bd b1b7 cdbe e817 4bbd
000002b0: 9633 31ba d58c 5e3b 6f61 fc3b 1f95 9c3a
000002c0: 2629 063a 4b00 6b3a 09cc 11b9 fdfa 43ba
000002d0: 903d d73d dbeb cbbc cafb 92be 474c 75bd
000002e0: cf5c 19bd 767a 2abd 8632 34bc cc76 1b3d
000002f0: 369f 3cbc d01f 8c3a c033 033f 164b 593b
00000300: eb15 aabd 76ee ebbc e0f6 9a3e 143c 773d
00000310: e77e 1b3d ff4b 79bc 95e4 313d a0a2 a73d
00000320: 7a68 993d fbc3 1bbd 50ad 823e a6e5 543d
00000330: dfc3 15bd ea02 c7bc 31fb 20bd 020d 903c
00000340: 4fa0 6f3d 37d4 b63d 6de5 30bc ba43 653c
00000350: 5705 39b9 5d4d a43a 4d11 fcb8 d3aa e4b9
00000360: bf17 4a3d 8452 00bc 0163 ddbe eabe b4bc
00000370: 2aef 3f39 0104 3d3a bd63 bcb6 fb4c 103a
00000380: abda 403d 7ac1 003d 7c98 87be c1f8 bbbd
00000390: 3c89 223d bb12 a6bc ae43 993d fd8b ef3b
000003a0: bcf2 313d 1541 8d3d 66e9 29be 0d7a 41bd
000003b0: 907c c23d 9c5a d83c a6df 92be 5a44 f4bd
000003c0: 7f15 2bbc 0c28 0c3d a849 0d3f 801a 223d
000003d0: 9ae9 303d 9108 863d 30ad a83d ee8b 1f3d
000003e0: f56a 383d 6620 c73c 6120 82be 2490 c8bd
000003f0: fb85 91bb 7c36 4f3a a3a4 2e3c 3f66 1b3b

fcs1.bias f4 [256]
-0.09270598 0.48945397 -0.0025412538 0.28695637 -0.01509217 0.009486059 0.25119764 0.3600297
-0.013423708 -0.013047335 0.2635119 -0.043015145 0.43132216 0.25761244 0.49875942 -0.043492712
0.0482937 -0.01146288 -0.04210168 0.2482973 -0.0062226676 0.11080255 -0.007903548 -0.002897888
0.1839269 -0.10334289 -0.0023945188 0.35399744 -0.001548564 0.021679347 -0.03342633 0.025943628
0.18724388 0.33334917 -0.012371063 0.049482852 -0.00089920446 0.22295812 0.15554824 -0.006153023
0.4434784 0.46399572 0.23113552 -0.014232789 -0.007073168 0.3767857 -0.0073332717 0.098459154
-0.04456895 0.24214248 0.22886187 -0.014190392 0.08698618 -0.004031139 0.17464699 -0.00025397268
0.42194712 0.22720636 0.4311262 0.28077346 0.14183941 0.25873527 0.3780209 -0.008684928
0.25240386 -0.043147597 0.090369664 0.224048 -0.021234067 -0.008803991 -0.037270095 0.367375
-0.011603229 0.03997804 -0.013501561 0.23053251 -0.035223164 -0.04327549 -0.018186849 0.28101236
-0.013974478 0.2239408 0.338044 -0.09463393 0.44174495 0.2806192 0.10848838 0.48159987
0.2812169 -0.008264616 0.33805248 0.25698906 0.26068512 0.07854469 0.15466812 0.35091847
0.4587496 0.42030385 0.20118445 -0.0039469977 -0.0013808545 -0.016258167 0.3456016 0.28432027
0.33804908 0.34042895 -0.0023378276 0.14116529 0.11565815 -0.023005191 0.17338626 -0.040446382
0.02034582 0.37962523 0.087160826 0.034808964 0.3336849 0.17749579 -0.008568677 0.020471746
0.4014591 0.019742075 -0.0108868005 -0.00541487 -0.005818549 -0.009583372 0.3114673 0.035644483
-0.04248484 0.103652686 -0.02237718 0.39717144 -0.0013542321 -0.045749087 0.36092705 0.12088894
0.013478624 -0.01691453 -0.100516394 -0.006129538 -0.0025238423 -0.08204165 -0.041371305 -0.027634738
0.1364509 0.031176075 -0.08931493 -0.0036332577 0.43967777 0.35693648 -0.102631554 0.21901558
0.10570794 -0.021356694 0.44709164 -0.021696564 0.43423623 -0.003283541 -0.03954046 -0.015726093
0.24202622 0.27768362 0.24468394 0.18658793 -0.0016599837 0.23520702 0.08256956 -0.044011198
0.27432182 0.14296561 -0.014840957 -0.010111662 -0.0005222773 0.22763842 0.28705347 -0.019558664
0.4658974 0.24787818 0.22805154 -0.02117475 0.14762521 0.28958768 0.11282092 0.32460597
0.0012985873 -0.10301024 0.23723026 0.10487772 -0.02291809 0.39488095 -0.010760905 0.16780221
-0.0026817834 0.2067391 -0.0975215 -0.02174331 -0.044111196 0.19361599 -0.007525274 0.34636784
0.2380089 0.14550377 -0.102022864 -0.008410435 0.23980269 0.16530441 0.39373463 -0.028681977
-0.004167061 0.29825625 -0.04168237 -0.007418139 0.40315047 0.30200058 0.2730838 0.38036576
-0.0077770106 0.19771822 0.3121339 -6.847189e-05 0.27505955 0.012323189 0.1402664 0.28594366
0.1377768 0.35802615 -0.04131001 0.4601219 0.032616477 0.4038323 -0.0013328416 -0.026500706
-0.008300142 0.42895198 0.013672678 0.16889931 0.10858217 -0.009626709 -0.019158509 0.23868746
0.3123322 -0.013417297 -0.02236886 0.109983526 -0.0043084878 0.44097543 -0.00446262 -0.0037266195
0.2014604 0.45362625 0.36477745 -0.09052221 0.22911704 -0.09606541 0.09104419 -0.091634735
00000000: a2dc bdbd b699 fa3e 2a8b 26bb f2eb 923e
00000010: 2645 77bc 6a6b 1b3c fa9c 803e d055 b83e
00000020: 1def 5bbc 7dc4 55bc 08eb 863e a630 30bd
00000030: 42d6 dc3e c7e5 833e 655d ff3e 6a25 32bd
00000040: 9dcf 453d cece 3bbc d072 2cbd a641 7e3e
00000050: 85e7 cbbb 73ec e23d e27d 01bc 7eea 3dbb
00000060: 5557 3c3e 70a5 d3bd 5ced 1cbb 273f b53e
00000070: 2ff9 caba e398 b13c 0cea 08bd bb87 d43c
00000080: dcbc 3f3e beac aa3e 00b0 4abc 88ae 4a3d
00000090: 97b8 6bba 224f 643e 0a48 1f3e 4c9f c9bb
000000a0: 9a0f e33e d990 ed3e caae 6c3e a530 69bc
000000b0: 09c6 e7bb 0eea c03e f14b f0bb f4a4 c93d
000000c0: ee8d 36bd 33f4 773e c45a 6a3e d17e 68bc
000000d0: cf25 b23d a517 84bb a9d6 323e a327 85b9
000000e0: 7409 d83e c9a8 683e 93bc dc3e 8ac1 8f3e
000000f0: 5a3e 113e f378 843e f58b c13e 3a4b 0ebc
00000100: 143b 813e 89bb 30bd bb13 b93d d76c 653e
00000110: 11f3 adbc 9d3e 10bc 87a8 18bd 9318 bc3e
00000120: 781b 3ebc 03c0 233d a735 5dbc b710 6c3e
00000130: 2a46 10bd a441 31bd 96fc 94bc dae0 8f3e
00000140: 35f5 64bc bd50 653e 1a14 ad3e 6fcf c1bd
00000150: 652c e23e 52ad 8f3e 282f de3d 4294 f63e
00000160: a9fb 8f3e 5068 07bc 3715 ad3e 1294 833e
00000170: 8578 853e 0adc a03d 5261 1e3e 96ab b33e
00000180: 3ae1 ea3e 1132 d73e 4c03 4e3e d155 81bb
00000190: cafd b4ba d92f 85bc b1f2 b03e 6d92 913e
000001a0: c514 ad3e b44c ae3e 3d36 19bb a28d 103e
000001b0: 2ede ec3d 6275 bcbc 2b8c 313e 1bab 25bd
000001c0: 47ac a63c 3d5e c23e 6081 b23d d893 0e3d
000001d0: bfd8 aa3e 75c1 353e a363 0cbc 5db4 a73c
000001e0: 0c8c cd3e 22ba a13c 8d5e 32bc 396f b1bb
000001f0: 87a9 bebb 9303 1dbc a478 9f3e f3ff 113d
00000200: 9504 2ebd dc47 d43d 5950 b7bc 0e5a cb3e
00000210: 7d80 b1ba 6563 3bbd 6ecb b83e 9f94 f73d
00000220: 72d5 5c3c 5790 8abc 8adb cdbd 4bda c8bb
00000230: 0c67 25bb 7405 a8bd f574 29bd 3f62 e2bc
00000240: c9b9 0b3e f864 ff3c bfea b6bd f31b 6ebb
00000250: 721d e13e 61c0 b63e 7e30 d2bd 9f45 603e
00000260: 687d d83d 3cf4 aebc 32e9 e43e febc b1bc
00000270: 3654 de3e ad30 57bb 2df5 21bd 02d4 80bc
00000280: b9d5 773e 8c2c 8e3e 6d8e 7a3e e810 3f3e
00000290: cf93 d9ba 1cda 703e 3b1a a93d 1645 34bd
000002a0: e973 8c3e 9465 123e 7c27 73bc 62ab 25bc
000002b0: 70e9 08ba 0c1a 693e acf8 923e 7e39 a0bc
000002c0: 1b8a ee3e c7d3 7d3e 5886 693e ab76 adbc
000002d0: 102b 173e d644 943e a80e e73d c132 a63e
000002e0: 5c35 aa3a 08f7 d2bd 7dec 723e 21ca d63d
000002f0: b8be bbbc d62d ca3e 824e 30bc 58d4 2b3e
00000300: dcc0 2fbb 6ab3 533e 5ab9 c7bd 071f b2bc
00000310: f1ad 34bd 4543 463e 9396 f6bb 2057 b13e
00000320: 9bb8 733e f1fe 143e 5df1 d0bd eccb 09bc
00000330: d68e 753e 8f45 293e 9697 c93e 77f6 eabc
00000340: d78b 88bb 0bb5 983e 22bb 2abd dc13 f3bb
00000350: bd69 ce3e d29f 9a3e a4d1 8b3e 4dbf c23e
00000360: 4bd6 febb a576 4a3e 04d0 9f3e 9198 8fb8
00000370: 9bd4 8c3e 33e7 493c ffa1 0f3e 3567 923e
00000380: 5d15 0d3e 344f b73e af34 29bd 1995 eb3e
00000390: db98 053d 1bc3 ce3e beb2 aeba 0218 d9bc
000003a0: 52fd 07bc 989f db3e 5e03 603c f1f3 2c3e
000003b0: 5460 de3d 58b9 1dbc 4ef2 9cbc 7c6a 743e
000003c0: 02ea 9f3e 39d4 5bbc e63e b7bc 0b3f e13d
000003d0: 372e 8dbb 88c7 e13e 2b3b 92bb 4d3a 74bb
000003e0: a34b 4e3e b341 e83e 1cc4 ba3e b563 b9bd
000003f0: a89d 6a3e f1bd c4bd 6075 ba3d feaa bbbd

fc2.weight f4 [256, 257]
-0.089073 0.036408912 -0.06605936 0.0023182102 -9.036716e-05 -0.05751646 0.0189056 -0.0024316986
-0.000121312994 -0.09944246 0.02269746 -0.08949042 -0.015328133 0.03131376 0.00024476502 -0.095959656
-0.020038825 -0.00014255219 -0.096423075 0.03757603 -7.7520795e-05 -0.00835435 2.4518813e-05 -2.682857e-05
0.017030464 -0.072640695 2.83638e-05 0.046630517 -0.07536535 -0.042962585 -0.094764285 -0.011508707
-0.009274343 -0.01143861 -0.10052601 -0.023396596 1.0489233e-05 0.0696384 0.014841248 -3.3305038e-05
0.050343335 -0.015382362 0.020085732 4.075811e-05 -9.063304e-05 0.025157094 0.0044987435 -0.006308012
-0.09256578 0.059360348 0.0446296 0.008407896 0.0111678755 1.3737008e-05 0.015900346 -4.4817236e-05
0.052792594 0.0036007974 0.048248053 -0.0105871465 0.007981785 -0.020117007 0.046125773 3.1938427e-05
-0.012795271 -0.09423192 0.034681793 0.03042258 0.001440267 -0.00020690626 -0.09336822 0.024212832
-0.1025188 0.06569862 -0.0005098959 0.037853476 -0.09425421 -0.09084784 0.011810749 -0.015224433
-0.00049259304 -0.012705323 0.025894405 -0.0813932 0.055696085 0.03057938 -0.0016448346 0.039835956
0.012867444 -0.00047538994 -0.005204891 0.010138941 0.058217112 0.001815973 -0.009327869 0.031800475
-0.01280658 0.008929418 -0.0007779509 -2.0619907e-05 -0.023203773 -1.1056369e-05 0.040084824 0.044618987
0.043599907 -0.022374744 2.045939e-05 -0.0143340435 -0.003845202 0.08715285 0.005695193 -0.05924988
-0.077682875 0.0031672278 -0.014214708 -0.015478665 0.04363786 0.02697326 -5.124828e-05 -0.02780038
0.049422786 -0.04529458 -1.7195207e-05 7.72386e-05 -0.00043294046 -9.277067e-05 0.027560221 -0.016036075
-0.09046822 0.025352642 -0.096361555 0.048210453 -2.492763e-06 -0.0907116 -0.019323416 0.034145072
-0.03247363 -0.00010029195 -0.07375444 8.595237e-06 1.5685593e-05 -0.08919834 -0.08131548 -0.056594077
0.0068090633 -0.0031064828 -0.08388583 -0.065596595 -0.009538632 0.046245646 -0.07335964 0.030319601
0.028996209 0.09805155 0.03915264 0.09554471 0.037502363 -0.00031789814 -0.09551718 -0.026488815
-0.004118723 0.015607739 0.026746329 -0.019161046 2.0907883e-06 0.00036579132 -0.020096838 -0.093831465
0.07531371 0.009341932 -8.736264e-05 -1.7707525e-05 -2.0916257e-05 0.028404506 0.018484022 -0.00016243728
0.0076992447 0.0401385 0.047525957 0.0019071356 0.012416925 0.0022541038 0.010149315 -0.020318246
-0.013210453 -0.07158306 0.010512456 -0.00787997 -0.0043823444 0.02718948 -0.10795217 0.016163735
1.6524244e-05 0.029164728 -0.08281092 -0.00022398963 -0.09021583 0.017632674 5.521191e-05 0.0036964072
0.007490971 0.030181311 -0.076428436 -0.0039963294 0.019776653 0.018935319 -0.0053907232 0.0054524327
-0.00022902717 0.046958465 -0.09063778 4.5114302e-06 0.016391844 -0.0012178092 -0.0022757545 -0.017486043
3.0947944e-05 0.021135014 0.013114474 6.534554e-07 -0.009795907 -0.016710382 0.010253377 -0.0057055643
-0.009600093 0.05908102 -0.09031761 0.032504026 -0.01393421 0.030132856 0.0042533227 -0.00039314097
9.340067e-05 -0.009401516 -0.033288904 0.018627174 -0.013484993 -0.110487185 -0.00040048716 0.017606774
-0.013981669 0.0077387406 -0.15599856 -0.012735698 -1.6275848e-05 0.059226353 -0.011614987 3.2376265e-05
0.027331432 -0.012881381 0.04917007 -0.07366207 0.017898422 -0.07634108 -0.009788793 -0.087385416
00000000: e86b b6bd 8321 153d 214a 87bd 1ded 173b
00000010: 8083 bdb8 6196 6bbd ebdf 9a3c 225d 1fbb
00000020: 6b69 feb8 7da8 cbbd 06f0 b93c c146 b7bd
00000030: d922 7bbc db42 003d ce53 8039 7f86 c4bd
00000040: 7628 a4bc 107a 15b9 7679 c5bd 53e9 193d
00000050: a992 a2b8 afe0 08bc c0ad cd37 ea0d e1b7
00000060: 7983 8b3c a5c4 94bd ccee ed37 a4ff 3e3d
00000070: 2659 9abd 89f9 2fbd c713 c2bd 048f 3cbc
00000080: 6af3 17bc 0269 3bbc 95e0 cdbd 38aa bfbc
00000090: eafa 2f37 949e 8e3d b528 733c 03b1 0bb8
000000a0: d034 4e3d 4d06 7cbc d58a a43c b0f3 2a38
000000b0: 3e12 beb8 4016 ce3c 326a 933b 71b3 cebb
000000c0: 2193 bdbd d623 733d 87cd 363d 46c1 093c
000000d0: 77f9 363c 0078 6637 7141 823c 24fa 3bb8
000000e0: 0c3d 583d 5bfb 6b3b c09f 453d b675 2dbc
000000f0: 08c6 023c 6ccc a4bc 61ee 3c3d a0f5 0538
00000100: 42a3 51bc aafc c0bd 7f0e 0e3d c638 f93c
00000110: 57c7 bc3a faf4 58b9 d637 bfbd fd59 c63c
00000120: 60f5 d1bd 008d 863d 89aa 05ba 3f0c 1b3d
00000130: 5a08 c1bd 6f0e babd df81 413c e66f 79bc
00000140: 5c21 01ba fd29 50bc 8120 d43c 7ab1 a6bd
00000150: 9421 643d 9c81 fa3c 7e97 d7ba 072b 233d
00000160: f9d1 523c c23d f9b9 ca8d aabb cd1d 263c
00000170: 1175 6e3d f105 ee3a ebd3 18bc 3741 023d
00000180: b1d2 51bc b24c 123c 67ef 4bba eaf8 acb7
00000190: d715 bebc be7e 39b7 fc2f 243d 66c2 363d
000001a0: d195 323d 3d4b b7bc 35a0 ab37 56d9 6abc
000001b0: c9ff 7bbb 327d b23d be9e ba3b 01b0 72bd
000001c0: 3318 9fbd 4491 4f3b cee4 68bc 3a9a 7dbc
000001d0: 9dbd 323d 07f7 dc3c 6cf3 56b8 9fbd e3bc
000001e0: 8c6f 4a3d cf86 39bd 6d3e 90b7 28fb a138
000001f0: 49fc e2b9 e08d c2b8 f9c5 e13c 165e 83bc
00000200: 6747 b9bd 58b0 cf3c 3559 c5bd 5378 453d
00000210: 5849 27b6 01c7 b9bd 244c 9ebc b4db 0b3d
00000220: 1203 05bd d553 d2b8 910c 97bd 4334 1037
00000230: 8e94 8337 9fad b6bd bb88 a6bd 31cf 67bd
00000240: 901e df3b 2296 4bbb 56cc abbd 8257 86bd
00000250: ec47 1cbc 136c 3d3d 943d 96bd d060 f83c
00000260: 7589 ed3c 40cf c83d 855e 203d f2ac c33d
00000270: 149c 193d 91ab a6b9 839e c3bd 12ff d8bc
00000280: 5af6 86bb 9ab7 7f3c 1e1b db3c a0f7 9cbc
00000290: 784f 0c36 aec7 bf39 20a2 a4bc b62a c0bd
000002a0: 133e 9a3d e70e 193c 7636 b7b8 9f8a 94b7
000002b0: 5275 afb7 91b0 e83c ce6b 973c ed53 2ab9
000002c0: f249 fc3b 4568 243d 94aa 423d daf8 f93a
000002d0: 5c70 4b3c 96b9 133b 5049 263c 7372 a6bc
000002e0: a870 58bc 249a 92bd 703c 2c3c fd1a 01bc
000002f0: c599 8fbb 79bc de3c 0716 ddbd cf69 843c
00000300: 8b9d 8a37 deea ee3c c698 a9bd c2de 6ab9
00000310: 14c3 b8bd 6672 903c 5693 6738 6c3f 723b
00000320: d276 f53b cc3e f73c 8386 9cbd a4f3 82bb
00000330: a602 a23c 3e1e 9b3c aaa4 b0bb 52aa b23b
00000340: 0327 70b9 8557 403d 4da0 b9bd e460 9736
00000350: 3048 863c e59e 9fba d324 15bb e43e 8fbc
00000360: 1ace 0138 5623 ad3c 17de 563c 1d69 2f35
00000370: 037f 20bc 36e4 88bc c8fd 273c bef5 babb
00000380: b549 1dbc f1fe 713d 70f8 b8bd f122 053d
00000390: 504c 64bc 2ed9 f63c 755f 8b3b 7d1e ceb9
000003a0: 1ae0 c338 d108 1abc f259 08bd 0498 983c
000003b0: 29f0 5cbc 1b47 e2bd 7af8 d1b9 153c 903c
000003c0: 5f13 65bc 4395 fd3b 16be 1fbe 64a9 50bc
000003d0: 1e88 88b7 5597 723d c94c 3ebc c0cb 0738
000003e0: 2be6 df3c 6e0c 53bc 8e66 493d 24dc 96bd
000003f0: b69f 923c b658 9cbd 2c61 20bc 20f7 b2bd

fc2.bias f4 [256]
0.06885422 -0.004802436 -0.0011785122 0.032569528 -0.025147 0.051103793 0.045447707 0.05362336
-0.0023923074 -0.019990925 -0.004604043 -0.01160006 0.019158674 0.011592684 -0.006343302 -0.002006994
-0.006987001 0.063417114 -0.0024469066 -0.006485259 -0.0071238764 0.014249197 -0.00394532 -0.0045445473
0.02196536 -0.034911305 0.03272167 -0.0010962597 -0.00041228198 0.01946592 -0.0012621487 0.060095347
0.0050700884 -0.00074658974 -0.0006712821 0.058040895 0.043614823 -0.009064862 0.035682503 0.01729021
-0.0006084515 0.008276282 -0.00078729587 -0.0017376728 0.036604982 0.055508588 -0.0010834484 0.011723725
0.00281549 0.004434297 -0.00040297766 -0.0011215124 0.015067182 0.011867397 0.05234615 0.018319007
0.044044472 -0.018102672 0.024077687 -0.0028821512 0.019512868 -0.023839332 -0.0072646714 -0.011358973
0.03704163 -8.600308e-05 -0.00070463435 -0.0038839013 -0.00022558511 0.011642724 0.013403986 0.0855423
-0.0021734606 -0.008917718 -0.00617387 0.02089271 -0.0011070678 0.046319287 -0.00029870626 -0.0006092011
0.056610323 -0.0005865631 -0.00015979132 0.024259623 -0.0017896811 -0.0028517726 -0.009664248 -0.0073050545
0.01820433 0.045854546 0.058092747 0.049586877 -0.003922338 -0.008482856 0.06597909 -0.0013455994
-0.025174018 -0.0006968081 -0.009991464 0.016767167 -0.0038963421 -0.0057638446 -0.01708404 0.035841335
0.02493767 0.03610169 -0.0009901349 -0.0028302725 0.015591353 -0.00022733821 -0.005754314 -0.0016523082
-0.00049353496 0.055754866 -0.007998543 -0.018172987 -0.0014701806 0.06758794 -0.0033855014 0.01162634
-0.0012146733 -0.00015618818 0.0025437253 -0.02017639 -0.0013376673 0.013226204 0.10024256 -0.027396264
-0.0013290078 0.062074885 -0.00011720404 0.039026547 -0.019136408 0.06693101 0.058145273 -0.00038400647
0.014397957 0.021517888 -0.0073983027 -0.0068051345 0.04751362 -0.0015406777 0.015077793 -0.00078895944
0.0281082 -0.008949151 0.05622311 -0.00054285955 0.043996632 -0.00834341 -0.0009000804 -0.0004238658
-0.00018902964 0.00013780435 0.05980811 -0.00036926233 0.06509015 -0.020639101 0.024389857 -0.0072486647
0.062687464 -0.00036137638 0.055072475 -0.02991649 0.06369766 -0.0026228796 0.05656754 -0.0012206315
-0.0032970156 0.0025224825 0.009237802 -0.0014900725 -0.0070099253 -0.002041931 -0.025379125 0.04604038
0.003896119 -0.030533584 -0.0065359427 -0.004951877 -0.0057649356 0.021790441 -0.005425454 0.018472537
-0.035879377 -0.00051639864 0.0658007 0.017502697 -0.024937276 0.043045007 -0.0024058612 0.06488356
-0.0021272884 0.074847445 -0.007636282 0.04640217 -0.00033053925 -0.002060115 -0.0005379981 -0.004780522
-0.0002816142 0.030792205 -0.028271738 0.06581401 -0.0010997715 -0.0034951053 -0.0016780603 0.0041480386
0.0027989477 0.03620922 0.029340636 -0.006731125 -0.012238068 -0.005140818 0.01467045 0.06967885
-0.00077994284 -0.00069134624 -0.0016943507 -0.0013867494 -0.0017425152 -0.00060293335 -0.0023901758 -0.020733045
0.037580963 -0.0021024158 -0.01876383 0.06673024 -0.0012241268 0.04380321 -0.0015282197 -0.00091888796
-0.00031482277 0.03367832 -0.009857496 0.07385789 -0.0027382981 -0.0012642315 0.015223415 -0.0044514835
0.023865007 -0.005904244 -0.0011697987 -0.0023182 0.026062323 -0.003301558 0.003045613 -0.0007625122
0.005750229 0.04495805 -0.020838123 -0.00035471056 -0.00017026326 0.014419296 0.056232158 0.0016935733
00000000: 7103 8d3d c15d 9dbb 4f78 9aba a067 053d
00000010: 1501 cebc 3652 513d 6027 3a3d 2ba4 5b3d
00000020: 42c8 1cbb 02c4 a3bc 83dd 96bb 2e0e 3ebc
00000030: a7f2 9c3c 3eef 3d3c 79db cfbb c687 03bb
00000040: 36f3 e4bb d5e0 813d 485c 20bb 4c82 d4bb
00000050: 686f e9bb 7775 693c be47 81bb 6dea 94bb
00000060: b3f0 b33c 28ff 0ebd 2807 063d 5fb0 8fba
00000070: 8d27 d8b9 fe76 9f3c af6e a5ba 8a26 763d
00000080: fc22 a63b cab6 43ba fbf8 2fba 4abc 6d3d
00000090: 75a5 323d c984 14bc d127 123d 33a4 8d3c
000000a0: 7d80 1fba 3e99 073c 8862 4eba a0c2 e3ba
000000b0: 1bef 153d f95c 633d 7f02 8eba de14 403c
000000c0: 1584 383b 944d 913b bf46 d3b9 b6ff 92ba
000000d0: 57dc 763c 796f 423c eb68 563d be11 963c
000000e0: fa67 343d 0e4c 94bc 923e c53c 79e2 3cbb
000000f0: 73d9 9f3c b44a c3bc 7b0c eebb fc1a 3abc
00000100: f7b8 173d 8d5c b4b8 36b7 38ba 0d89 7ebb
00000110: 0b8b 6cb9 20c1 3e3c 649c 5b3c cd30 af3d
00000120: 9e70 0ebb 9f1b 12bc 2d4e cabb 3027 ab3c
00000130: 081b 91ba 4bb9 3d3d ad9b 9cb9 cbb2 1fba
00000140: 3ae0 673d 95c3 19ba a88d 27b9 1ebc c63c
00000150: bc93 eaba cee4 3abb cb56 1ebc 3d5f efbb
00000160: 3f21 953c fad1 3b3d a9f2 6d3d 9c1b 4b3d
00000170: f586 80bb adfb 0abc 0c20 873d d35e b0ba
00000180: be39 cebc 00aa 36ba 3db3 23bc 4c5b 893c
00000190: c659 7fbb a2de bcbb d4f3 8bbc 5dce 123d
000001a0: 164a cc3c 5edf 133d 6ac7 81ba 187c 39bb
000001b0: e072 7f3c a361 6eb9 af8e bcbb 4392 d8ba
000001c0: 9260 01ba 375f 643d 520c 03bc 84df 94bc
000001d0: 13b3 c0ba 8c6b 8a3d 4adf 5dbb 687c 3e3c
000001e0: ac35 9fba 72c6 23b9 a1b4 263b f548 a5bc
000001f0: ab54 afba b8b2 583c f94b cd3d 216e e0bc
00000200: 1a32 aeba 3c42 7e3d 71cb f5b8 4dda 1f3d
00000210: f5c3 9cbc 2013 893d bd29 6e3d 7a54 c9b9
00000220: 69e5 6b3c 4846 b03c 766d f2bb 9bfd debb
00000230: a49d 423d 91f0 c9ba d908 773c 2cd2 4eba
00000240: 2b43 e63c 769f 12bc 344a 663d b04e 0eba
00000250: d035 343d ccb2 08bc 60f3 6bba 4e3a deb9
00000260: 4236 46b9 937f 1039 59f9 743d 8d99 c1b9
00000270: fc4d 853d 5513 a9bc 3dcd c73c 3586 edbb
00000280: 4962 803d 1e77 bdb9 ad93 613d 6d13 f5bc
00000290: eb73 823d 9ee4 2bbb 5db3 673d 99fd 9fba
000002a0: be12 58bb 3c50 253b 265a 173c 894e c3ba
000002b0: 84b3 e5bb ebd1 05bb e2e7 cfbc d694 3c3d
000002c0: 0856 7f3b 9121 fabc 762b d6bb 5b43 a2bb
000002d0: c9e7 bcbb de81 b23c 02c8 b1bb b853 973c
000002e0: 41f6 12bd ed5e 07ba 84c2 863d d161 8f3c
000002f0: 4249 ccbc f64f 303d a7ab 1dbb ace1 843d
00000300: fa69 0bbb 9e49 993d c739 fabb 3410 3e3d
00000310: 3a4c adb9 ff02 07bb 7108 0dba eda5 9cbb
00000320: 9ea5 93b9 ef3f fc3c 229a e7bc 7fc9 863d
00000330: 3526 90ba 230e 65bb 5cf2 dbba 45ec 873b
00000340: 8d6e 373b 1e50 143d c65b f03c c590 dcbb
00000350: 2d82 48bc 4f74 a8bb 545c 703c c9b3 8e3d
00000360: 1475 4cba 763b 35ba fa14 deba 97c3 b5ba
00000370: 1c65 e4ba 2c0e 1eba 7fa4 1cbb 59d8 a9bc
00000380: 7fee 193d afc8 09bb 9bb6 99bc dda9 883d
00000390: e172 a0ba ff6a 333d 8b4e c8ba 87e1 70ba
000003a0: cc0e a5b9 47f2 093d 5681 21bc ce42 973d
000003b0: 0575 33bb 92b4 a5ba a16b 793c c0dd 91bb
000003c0: 8c80 c33c 6378 c1bb ee53 99ba f1ec 17bb
000003d0: a780 d53c f45e 58bb e898 473b 54e3 47ba
000003e0: 6b6c bc3b ef25 383d b6b4 aabc 72f8 b9b9
000003f0: b288 32b9 e93e 6c3c b153 663d e4fa dd3a

fc3.weight f4 [128, 256]
3.144661e-07 -4.695791e-10 -1.7344463e-11 2.7847264e-07 1.7018036e-07 4.491121e-07 3.111327e-07 1.9156549e-07
-5.929846e-11 1.1872355e-07 -6.233996e-10 1.0537115e-07 1.5044903e-07 3.248588e-07 1.6572551e-07 1.0168874e-10
-1.3379724e-09 3.392476e-07 4.099397e-09 6.793329e-09 1.17139066e-07 1.347909e-07 6.4888512e-09 -8.0378887e-10
1.446903e-07 1.8222248e-07 4.0061616e-07 6.4460104e-11 -3.432945e-12 1.77993e-07 4.13619e-11 2.9475865e-07
5.610989e-07 -9.636776e-12 4.0583523e-11 3.1299905e-07 4.2060591e-07 -2.3692623e-10 2.2218664e-07 1.9326446e-07
1.7699064e-10 3.907856e-07 -4.4131547e-12 1.2834774e-10 1.3333405e-07 1.870478e-07 -5.3265437e-10 3.3670398e-07
3.8950282e-07 3.6310996e-07 -4.3125863e-12 1.6083103e-09 2.5116728e-07 1.8176668e-07 2.5633804e-07 2.693753e-07
1.6710662e-07 1.526395e-07 -1.0645783e-06 1.4740266e-07 1.2445179e-07 1.5416943e-07 1.3696302e-07 -5.314351e-10
4.9824473e-07 -2.290044e-12 1.7295727e-11 2.6264337e-09 -1.8790017e-12 3.6016183e-07 1.4013398e-07 1.0872153e-05
-4.3836164e-11 -7.489552e-10 4.942012e-09 2.855951e-07 -2.1457489e-12 1.7825755e-07 2.8887292e-11 -2.0082026e-13
1.4409167e-07 -1.2316493e-11 -8.880815e-12 1.3827061e-07 -2.7010647e-11 6.684147e-10 -2.8409062e-09 8.9565674e-08
1.3575091e-07 2.6945312e-07 3.1298703e-07 3.4662895e-07 2.4727669e-09 4.3980624e-09 1.6860083e-07 -2.797865e-11
1.5364064e-07 -1.85971e-11 1.0412424e-09 1.2507067e-07 -5.016114e-10 4.0318713e-07 1.805934e-07 1.6212898e-07
5.65335e-07 1.1189476e-07 -2.771078e-11 -1.664862e-11 4.741101e-07 4.1349733e-07 -4.706243e-10 -4.5278073e-11
-1.4012786e-11 1.470676e-07 1.6775364e-07 3.0930156e-07 -2.2181385e-11 1.9824205e-07 -1.2173175e-10 4.3714348e-07
-3.0332487e-11 1.687488e-07 9.843707e-08 3.8526193e-07 -2.5968852e-11 1.1172984e-07 -5.7506913e-05 2.1902007e-07
-5.2191423e-10 4.325445e-07 -2.4030482e-12 4.2269437e-07 7.487938e-08 3.5539418e-07 2.6903112e-07 -4.6508596e-12
4.387301e-07 4.730249e-07 -2.6566145e-09 -1.8871515e-10 8.058528e-08 -6.09933e-11 1.3753873e-07 -2.425048e-12
1.3193642e-07 9.778514e-09 1.9841195e-07 4.401044e-11 1.9873887e-07 -3.1056224e-10 -2.5953134e-11 1.0861054e-10
-6.9558226e-12 1.7815387e-07 3.7994542e-07 8.04526e-11 3.6029184e-07 3.386378e-07 2.869917e-07 5.8885123e-09
1.8306031e-07 -1.07435935e-11 1.6232306e-07 2.565789e-07 1.9820716e-07 -3.155771e-10 1.332968e-07 1.6224074e-07
1.1110474e-07 2.0349619e-07 9.355316e-08 -1.3116681e-11 3.5427472e-09 -4.6746204e-11 1.7522045e-07 2.5370525e-07
1.1621494e-07 -2.2171385e-09 -4.783857e-10 -8.913713e-10 -3.47883e-10 2.800577e-07 1.7014327e-07 3.6900065e-07
1.5749758e-07 -1.4007045e-11 2.2990791e-07 4.116735e-07 1.4842061e-07 2.514655e-07 -2.2520487e-10 1.0471187e-07
1.2553639e-07 3.6863844e-07 4.254128e-07 9.916463e-08 6.887468e-11 -6.497232e-11 1.638845e-07 1.344459e-09
6.566787e-11 1.6848269e-07 1.800979e-07 4.6635162e-07 -1.882964e-11 -2.3704433e-10 9.426593e-10 1.3628595e-07
-2.0123551e-07 5.4391245e-07 2.2124424e-07 -2.1051116e-09 -5.1136184e-09 1.1050549e-11 1.3421756e-07 4.199648e-07
1.2491358e-10 -3.6710556e-12 4.399911e-11 -5.7562306e-12 1.3933168e-09 1.8173199e-11 -7.4814585e-11 1.4972284e-07
6.058291e-07 -6.907175e-11 1.1619251e-07 3.922817e-07 -3.0015598e-11 5.7116324e-07 -2.128395e-11 1.8938537e-10
-7.77442e-12 3.3546706e-07 4.7192583e-09 4.3625943e-07 7.0642325e-11 -6.35925e-11 3.9612317e-07 -2.628366e-10
3.553716e-07 -5.4189603e-10 -4.5910775e-12 -7.7278295e-11 2.9550898e-07 3.2032949e-10 1.3439947e-07 -1.243402e-10
7.4603896e-08 3.1377064e-07 1.12517164e-07 2.612552e-11 -1.0201805e-12 1.118343e-07 4.3074908e-07 1.7867967e-07
00000000: e4d3 a834 b113 01b0 4290 98ad fd80 9534
00000010: d2ba 3634 7f1d f134 c109 a734 1fb1 4d34
00000020: 1166 82ae f6f4 fe33 d95b 2bb0 6748 e233
00000030: 1d8b 2134 4168 ae34 48f2 3134 ac9d df2e
00000040: b8e3 b7b0 d621 b634 adda 8c31 c16a e931
00000050: e28d fb33 0abb 1034 8af4 de31 9df1 5cb0
00000060: 2b5c 1b34 efa8 4334 4414 d734 d0bf 8d2e
00000070: 7092 71ac 581e 3f34 5ce9 352e 523f 9e34
00000080: 6c9e 1635 2e88 29ad fc7c 322e 430a a834
00000090: a3cf e134 6740 82af 3392 6e34 2184 4f34
000000a0: 709a 422f 2acd d134 2a46 9bac ad1e 0d2f
000000b0: 962a 0f34 4fd7 4834 386a 12b0 3ec4 b434
000000c0: dc1c d134 74f1 c234 53bc 97ac 630b dd30
000000d0: 2bd8 8634 a52b 4334 d59e 8934 a99e 9034
000000e0: eb6d 3334 3ae5 2334 a2e2 8eb5 bc45 1e34
000000f0: 0ca1 0534 c589 2534 1c10 1334 6c14 12b0
00000100: 1ebf 0535 c425 21ac 8422 982d b67c 3431
00000110: 1639 04ac 445c c134 bc77 1634 8b67 3637
00000120: 22cb 40ae 09df 4db0 66ce a931 e453 9934
00000130: 60fe 16ac 1067 3f34 6618 fe2d 801a 62aa
00000140: 9eb7 1a34 8eac 58ad a33b 1cad 8977 1434
00000150: 9296 edad 81bb 3730 c039 43b1 4057 c033
00000160: edc2 1134 5ba9 9034 9c08 a834 5218 ba34
00000170: 60ed 2931 c41d 9731 a508 3534 521a f6ad
00000180: 6bf8 2434 f294 a3ad 761b 8f30 2a4b 0634
00000190: c4e1 09b0 9e75 d834 23e9 4134 ad15 2e34
000001a0: 86c1 1735 cb4a f033 21bf f3ad 5c71 92ad
000001b0: 3289 fe34 a4fe dd34 3e5d 01b0 9422 47ae
000001c0: fa83 76ad a2e9 1d34 c51f 3434 150e a634
000001d0: 0a1c c3ad 5cdc 5434 71d8 05af 8bb0 ea34
000001e0: 5867 05ae 5131 3534 5a64 d333 ffd5 ce34
000001f0: a86c e4ad 21f0 ef33 9433 71b8 c72b 6b34
00000200: 7376 0fb0 7738 e834 7819 29ac acee e234
00000210: 60cd a033 01cd be34 5b6f 9034 38a3 a3ac
00000220: 9b8a eb34 0cf4 fd34 a88f 36b1 987e 4faf
00000230: 3a0e ad33 2d20 86ae 5cae 1334 c8a5 2aac
00000240: 68aa 0d34 5cfe 2732 100b 5534 5a8f 412e
00000250: ed64 5534 c0bb aaaf 4349 e4ad 4cd6 ee2e
00000260: 7bbc f4ac 904a 3f34 4dfb cb34 caea b02e
00000270: 226e c134 06ce b534 d713 9a34 e753 ca31
00000280: 3c8f 4434 d800 3dad 064b 2e34 efbf 8934
00000290: c5d2 5434 877d adaf 5820 0f34 6534 2e34
000002a0: 7a98 ee33 9b80 5a34 65e7 c833 48c0 66ad
000002b0: ab74 7331 8c97 4dae 3b24 3c34 fc34 8834
000002c0: d791 f933 505c 18b1 677f 03b0 ae04 75b0
000002d0: 2e40 bfaf d65a 9634 a0b0 3634 101b c634
000002e0: 9b1c 2934 1f6a 76ad 9bdc 7634 fa03 dd34
000002f0: 8c5d 1f34 2801 8734 899d 77af f6dd e033
00000300: 2ecb 0634 48e9 c534 4a64 e434 55f4 d433
00000310: ff74 972e 2ae0 8eae 3af8 2f34 f2c7 b830
00000320: b967 902e 2be8 3434 ef60 4134 e15e fa34
00000330: 94a0 a5ad 0651 82af e08e 8130 ff55 1234
00000340: 3213 58b4 6101 1235 278f 6d34 84a9 10b1
00000350: ddb3 afb1 4067 422d 711d 1034 8677 e134
00000360: 0c58 092f ee29 81ac 9882 412e 8487 caac
00000370: fa7e bf30 68da 9f2d de84 a4ae 80c3 2034
00000380: 42a0 2235 f0e3 97ae 8285 f933 c99a d234
00000390: 8f02 04ae 0a52 1935 3237 bbad 3e3b 502f
000003a0: e0c4 08ad 3e1a b434 0927 a231 0a37 ea34
000003b0: 1858 9b2e 65d7 8bae c1aa d434 f77e 90af
000003c0: e7c9 be34 8bf4 14b0 c088 a1ac d0ef a9ae
000003d0: 72a6 9e34 5e1a b02f 724f 1034 a8b6 08af
000003e0: ed35 a033 4f74 a834 f7a0 f133 71cd e52d
000003f0: e093 8fab 8e29 f033 b441 e734 18db 3f34

fc3.bias f4 [128]
-2.8113496e-07 0.04353028 0.0014283886 -1.6101159e-06 0.08719313 -0.00025416506 0.007978205 0.009853305
0.0280778 0.04432332 -1.1095609e-05 -0.000794367 0.09761538 0.0670763 0.084635176 -0.0031566205
0.038274057 0.09018923 -0.007164355 -0.012835629 -0.009042659 -0.0013328315 0.038686577 -0.029606149
0.044461884 -0.0010260479 -0.0001448925 -4.2343654e-05 -0.03336042 -0.0010201386 0.008930947 -0.0074172905
0.020481749 0.07570251 -0.0041011344 0.02595991 -0.00019718336 -0.0018458375 0.06457597 -0.0009177061
-0.0066604577 0.034545794 0.055576704 0.051478874 0.013765881 -6.6423095e-06 -0.0049789106 0.019506084
0.063295916 -0.00047915627 -0.034915738 0.0044280062 -0.00045837022 0.06518336 -0.0026831531 0.03738101
-0.005152696 -0.0002968089 -0.0003862476 -0.0022584235 0.104706176 -5.7537632e-09 -0.0009433902 -0.003728395
-3.8854727e-05 0.018853279 -3.4703306e-05 0.013992867 0.003024645 -0.0031632874 0.040553935 0.060460888
0.065495215 0.038260058 0.02741982 -0.0015021765 -0.00019006245 0.010311307 -0.0016147445 0.005126271
0.033110157 0.065262966 -0.0002637662 -0.0010439843 0.04455538 -0.000114343566 0.021560736 -0.00020512838
-0.00041900936 -0.00994272 -0.00063137745 0.023825381 -0.0017662845 0.05372613 -0.009762831 0.054886974
0.06596714 0.028267516 -0.009910477 0.014135183 0.025034219 0.029141424 0.026471218 0.0041689696
0.06240436 -0.021552928 -3.7995324e-06 -0.00028977514 -5.4374486e-05 0.022838524 0.015161946 -5.309236e-05
-5.589357e-08 0.03526935 -5.7445206e-05 0.01605585 0.08207718 0.0095431805 0.06521634 0.06120565
-0.003049012 0.0036518984 0.049460553 0.06384902 -0.00012508205 -0.0110393865 -0.00084257685 0.0141631225
00000000: e5ee 96b4 cf4c 323d c538 bb3a 291b d8b5
00000010: 5092 b23d 7541 85b9 04b7 023c c26f 213c
00000020: 6a03 e63c 5f8c 353d 4727 3ab7 113d 50ba
00000030: 93ea c73d 4d5f 893d 3555 ad3d 4edf 4ebb
00000040: 42c5 1c3d 22b5 b83d f7c2 eabb 884c 52bc
00000050: a927 14bc 67b2 aeba d175 1e3d 9888 f2bc
00000060: aa1d 363d 747c 86ba 49ee 17b9 279a 31b8
00000070: f0a4 08bd 2cb6 85ba 1b53 123c be0c f3bb
00000080: 57c9 a73c eb09 9b3d cf62 86bb e1a9 d43c
00000090: 01c3 4eb9 07f0 f1ba 6840 843d 3792 70ba
000000a0: f83f dabb e47f 0d3d 66a4 633d 83db 523d
000000b0: 4a8a 613c 01e1 deb6 2126 a3bb 39cb 9f3c
000000c0: 4aa1 813d 4437 fbb9 ce03 0fbd cf18 913b
000000d0: 6951 f0b9 da7e 853d d7d7 2fbb d41c 193d
000000e0: f2d7 a8bb 049d 9bb9 4681 cab9 0f02 14bb
000000f0: 3170 d63d a3b2 c5b1 d84d 77ba 1758 74bb
00000100: f2f7 22b8 3172 9a3c 648e 11b8 5742 653c
00000110: 1f39 463b 284f 4fbb e21b 263d d6a5 773d
00000120: 5b22 863d 94b6 1c3d 889f e03c aee4 c4ba
00000130: 804b 47b9 c2f0 283c d6a5 d3ba 47fa a73b
00000140: 849e 073d 97a8 853d 1a4a 8ab9 4dd6 88ba
00000150: b47f 363d bccb efb8 24a0 b03c bb17 57b9
00000160: 7cae dbb9 cae6 22bc 0683 25ba 722d c33c
00000170: ac82 e7ba ee0f 5c3d 48f4 1fbc 2ad1 603d
00000180: c819 873d 4791 e73c 8e5f 22bc 4197 673c
00000190: 9014 cd3c ffb9 ee3c 2bda d83c da9b 883b
000001a0: b79b 7f3d c48f b0bc 78fb 7eb6 f6ec 97b9
000001b0: 2910 64b8 db17 bb3c d069 783c 7daf 5eb8
000001c0: a10f 70b3 9876 103d 52f1 70b8 8f87 833c
000001d0: 1518 a83d 005b 1c3c 2590 853d c7b2 7a3d
000001e0: efd1 47bb b054 6f3b 2697 4a3d 46c3 823d
000001f0: 7528 03b9 8bde 34bc 60e0 5cba 710c 683c

fc4.weight f4 [1, 128]
-3.3472605e-07 0.11945669 0.11962656 -1.0003506e-06 0.22767645 -0.0015368426 0.11681392 -0.10376633
0.11091294 0.051650696 -7.210029e-06 0.002786425 0.31295937 0.10236777 0.09040519 0.107257515
0.113512985 0.15094951 -0.2425997 0.13890417 -0.0088058645 -0.037723154 0.15113682 0.10681673
0.100473896 -0.0042202096 -0.00034072757 -7.0486705e-05 -0.2839595 -0.0061092805 -0.076747425 0.010280219
0.11373588 0.09323331 -0.021176137 0.043752104 -0.0010039454 0.0057428414 0.1004649 -0.0024926362
0.13404985 0.12244432 0.112020515 0.2734661 0.04395299 3.727771e-06 -0.0072194696 0.10269581
0.12722223 0.12629303 0.15066469 0.13295227 0.00743812 0.10149301 -0.039983276 0.27104822
0.14111948 -0.001717281 -0.0010386893 -0.0039729397 0.21865521 2.2911733e-08 -0.0024544343 -0.002133776
-0.00015270831 -0.12668754 -8.394446e-06 0.10227329 -0.013863882 0.122245446 0.13488151 0.13529034
0.19905162 0.10842909 0.1252738 -0.0058207233 -0.001322921 -0.067976914 -0.0038708516 0.009921664
0.09726526 0.10354968 -0.00027770537 -0.0039811567 0.11789323 -0.00023133775 -0.13907379 -3.716034e-05
-3.3644097e-05 0.14018707 -0.00078561314 0.20566152 0.112428315 0.11148654 0.11611271 0.14594248
0.12436902 0.121174596 -0.009236102 0.10769495 0.11465713 0.11405295 0.11165829 0.1262041
0.118428394 0.10877416 -2.4625133e-06 -0.00042310936 9.203192e-06 0.10443984 0.1198981 -0.00019897231
-2.8223718e-07 0.11830013 -0.00012522838 -0.119167835 0.101366736 0.26533002 0.09586497 0.116492145
0.010138908 0.14155889 0.13436075 0.13344312 -0.00048096746 0.110760525 -0.0015529827 0.051812302
00000000: 66b4 b3b4 b6a5 f43d c5fe f43d c943 86b5
00000010: 0424 693e e16f c9ba 233c ef3d 7183 d4bd
00000020: 5326 e33d ae8f 533d aded f1b6 749c 363b
00000030: 363c a03e 32a6 d13d 5b26 b93d d4a9 db3d
00000040: 7f79 e83d 8292 1a3e 0e6c 78be e53c 0e3e
00000050: 7946 10bc 9883 1abd 9cc3 1a3e bbc2 da3d
00000060: 42c5 cd3d af49 8abb aea3 b2b9 43d2 93b8
00000070: 2463 91be 5c30 c8bb c12d 9dbd 5d6e 283c
00000080: 5bee e83d 1bf1 be3d 9479 adbc 6835 333d
00000090: d196 83ba 722e bc3b 8bc0 cd3d 7f5b 23bb
000000a0: 5d44 093e 16c4 fa3d 036b e53d c003 8c3e
000000b0: 0d08 343d 9e2a 7a36 4d91 ecbb 2e52 d23d
000000c0: 8b46 023e f652 013e d847 1a3e a424 083e
000000d0: 79bb f33b 91db cf3d 81c5 23bd d5c6 8a3e
000000e0: a081 103e 6316 e1ba a124 88ba 6f2f 82bb
000000f0: 27e7 5f3e 6fcf c432 93da 20bb d2d6 0bbb
00000100: 5320 20b9 61ba 01be dfd5 0cb7 a974 d13d
00000110: 5625 63bc d25b fa3d 611e 0a3e 8d89 0a3e
00000120: 30d4 4b3e 1210 de3d c647 003e c4bb bebb
00000130: dd65 adba 7b37 8bbd 1dae 7dbb 7a8e 223c
00000140: 0233 c73d db11 d43d fc98 91b9 5d74 82bb
00000150: 0172 f13d 4193 72b9 5c69 0ebe 9cdc 1bb8
00000160: 131d 0db8 338d 0f3e 9bf1 4dba ef98 523e
00000170: d140 e63d 0e53 e43d 80cc ed3d f271 153e
00000180: 2fb5 fe3d 632a f83d 0553 17bc 2c8f dc3d
00000190: 5bd1 ea3d 9894 e93d 1aad e43d a63b 013e
000001a0: 968a f23d fdc4 de3d a841 25b6 c7d4 ddb9
000001b0: 6967 1a37 8ee4 d53d 238d f53d 39a3 50b9
000001c0: 6286 97b4 5747 f23d bd4f 03b9 440e f4bd
000001d0: 5d99 cf3d 56d9 873e da54 c43d 6f93 ee3d
000001e0: aa1d 263c d0f4 103e dd95 093e 50a5 083e
000001f0: 5c2a fcb9 6ad6 e23d 748d cbba 2339 543d
