other_algorithms/ddpg/ddpg-1/checkpoint_actor.pth (torch, 493026 bytes, 5 tensors)

fc1.weight f4 [400, 4]
00000000: 18a2 38bd 680f 203d 1d47 253d 4559 0cbd
00000010: e7c4 833b 8dcf b43b c07b ba3c e029 5cbc
00000020: b089 93bc b7ae 3dbd 0014 0ebd bd37 f0bc
00000030: ea16 143d aee0 f93c f900 6abc 5d11 8bbd
00000040: 8f06 41bd 1da8 d4bc 2759 27bd 6796 e2b8
00000050: 6b77 33bc 459e 423c d4bb 28bd e04c 80bd
00000060: f1e4 5d3d 3c3b 233d 6cf2 c2bc 5db6 1dbd
00000070: 4392 0f3d f2e6 5b3c e497 49bd 2350 e53a
00000080: 091f 873d 5201 1cbc 376f 363c e36b 83bd
00000090: a0e5 31bd 1a36 aa3c 4a2b c0bc 6739 253c
000000a0: 6516 8dbc 35c1 ab3c 2233 ad3b ceb1 a13c
000000b0: e69c 843d 9422 0bbb 2dae 71bd 210b 2bba
000000c0: 519e c6bc 0af1 8b3d 91f0 b8bc 93ae 653b
000000d0: 3b9f 823d 268d 443d 59c3 e4bc d333 4abd
000000e0: 6c93 54bc 8d39 503d d0aa 02bc e245 3bbd
000000f0: 2130 dbbc 0e39 21bc d127 46ba 84ff afba
00000100: 6ada 8fbc c18b 893d 8fc6 03bc a925 90bd
00000110: 1242 5dbc d4aa 583d 3d8c 78bc 0d1c 7ebd
00000120: 1c70 a1bc 5262 843d 8601 943c 7603 1b3c
00000130: fb74 e7bc e749 2e3d f777 3bbd c033 32bd
00000140: b632 ff3c 4893 573d 9e66 d1bb 09fa 22bc
00000150: 2547 543d bf7c 1abc 4903 843b 9090 06bd
00000160: 18c5 6e3d e3f5 c33c 3dfa 5bbd 12c1 17bd
00000170: f0b9 163b bbec c4bc 532c 70bd cf54 0abd
00000180: d531 7bba 40ba e73c 0295 3f3d dbea 2f3c
00000190: 3ac4 403d 6a44 03bd 8a99 393d 671e 693b
000001a0: 50bb 063d ab33 183d 7375 0cbd 679c bc3c
000001b0: 6fce 813c 6517 80bc 6021 a5bc 5364 89bd
000001c0: 1aa2 8f3c 2ee5 c13c e2f2 d43c dbf4 72bd
000001d0: 27b3 d8bc fbe6 01bd b743 30bd 339f 963c
000001e0: ddf1 693d f839 843c 6020 103c e6c8 92bc
000001f0: 02b9 3abc 1300 923d b9ba 9e3a 15dc 7fbd
00000200: c250 99bc fd4a c2bc 6176 543c a8ce 203d
00000210: 73cd ed3c c033 303d a230 7bbd 79b3 85bc
00000220: daa1 843d a4ef 063d a025 8f3c 5ea7 d9bc
00000230: 4b5e e9bc 9a60 e4ba ab41 a8bc 044c e03c
00000240: 67c0 45ba 4b24 01bd b80f 453d 4af9 04bd
00000250: 974c dbbc 9a9a eebb 5a60 49bd cd3a 00bd
00000260: cc15 aa3b 83d7 8b3d 15a0 ca3c 2fcb bc3c
00000270: 79c3 3abc aa45 473d 2cb8 babc dd11 89bd
00000280: d35e ec3c 00ec 353a 57e6 f5bc bac0 613c
00000290: dfb1 25bd b283 333d 8d68 7c3c d215 1ebd
000002a0: 76aa db3b f830 d8bc efb3 5fbd 5111 91bd
000002b0: e9c8 9e3c 3f46 cbbc ac94 5abd 6e4c 2fbd
000002c0: cf29 1cbb e164 553d eb70 c3ba 1b5f d03c
000002d0: eda4 823d 502c 8e38 4d8d 33bd 2621 013c
000002e0: 2584 39bd 8a1b e53c 1a15 2bbc e793 2e3d
000002f0: 805e 073d a001 363d 77bf 2c3c 3334 8abd
00000300: d0bf f43c b7c6 fd3c a262 14bd 98d1 42bd
00000310: 93e8 6c3d dac2 783d 8892 da3b 899f 8cbd
00000320: e30c d53c ed10 663c f7c7 e73c 47e1 8fbc
00000330: 2269 e33c 626f c53b 6315 04bd dd20 7bbd
00000340: 272a 1bbd bab0 ce3c d728 ea3c 2de7 9e3c
00000350: a713 2cbd d0d3 263d 6d58 39bd 5db1 d93c
00000360: 583c b53c ea43 053d 6c55 ed3c 4d0f 32bd
00000370: cfa3 053d 5ab6 59bc 42b6 41bd 4dd8 903b
00000380: ed30 e83c 255c 41bd 077a bbbc f34f e4bc
00000390: fa4b e63c fbb4 363d 9a5c 3dbc 2070 343d
000003a0: 901b 8a3d 5fc6 44bc 9917 0dbd e773 1bbd
000003b0: af9b 033d 772f a3bc 8701 31bc f282 193d
000003c0: 3959 3f3c 38a1 14bc c79b 013c d9a5 cdbc
000003d0: adac 01bb 0070 743d 8dd1 71bd e5e2 9bbc
000003e0: 3042 2bbd 672e 0bb9 0d55 8bbc c099 a53b
000003f0: c09f 20bc a781 fabc ed7a 4c3c 3066 83bc
-0.04507646 0.039077193 0.040351022 -0.03426482 0.0040212753 0.005517906 0.022764087 -0.013437718
-0.01800999 -0.0463092 -0.034687042 -0.029323453 0.036154665 0.030502643 -0.014282458 -0.06790421
-0.047125395 -0.025959069 -0.040856507 -0.000108045344 -0.010953764 0.011878555 -0.04119475 -0.06264663
0.054173414 0.039851412 -0.023797236 -0.038503993 0.035051595 0.013421761 -0.04921712 0.0017495196
0.06597716 -0.009521799 0.011134914 -0.06417062 -0.043431878 0.02077775 -0.023458142 0.010084487
-0.017222593 0.020966152 0.0052856365 0.019738104 0.064752385 -0.0021230327 -0.059003998 -0.00065247907
-0.024245413 0.06833084 -0.022575649 0.0035046681 0.06378027 0.047986172 -0.02792518 -0.04936583
-0.012974601 0.050836135 -0.007975295 -0.045720942 -0.026756348 -0.009840263 -0.00075590337 -0.001342759
-0.017560203 0.06716109 -0.0080429455 -0.07038433 -0.013504522 0.05289729 -0.015170154 -0.06203847
-0.019706778 0.064640656 0.018067133 0.009461274 -0.028254023 0.042550948 -0.045768704 -0.043506384
0.03115211 0.052630693 -0.0063904068 -0.009947308 0.05182566 -0.009429156 0.004028712 -0.03285271
0.058293432 0.023920959 -0.053705443 -0.03704936 0.002299901 -0.024038663 -0.05863602 -0.033772286
-0.00095823157 0.028287053 0.046772964 0.010737146 0.047062136 -0.032047667 0.045312442 0.00355711
0.03289348 0.03715865 -0.034291696 0.023023797 0.015845506 -0.015636155 -0.020157516 -0.067085885
0.01753335 0.023668852 0.025994722 -0.059315544 -0.026452614 -0.03171442 -0.043033328 0.018386459
0.057115424 0.016140923 0.008796781 -0.017918061 -0.011396648 0.071289204 0.0012110091 -0.062465746
-0.018715266 -0.023717398 0.012967677 0.039259583 0.02902863 0.043018103 -0.061325677 -0.01632093
0.06476183 0.032943383 0.017473996 -0.026569065 -0.028487345 -0.0017423809 -0.020539125 0.027379997
-0.0007543624 -0.031528752 0.048110694 -0.032464303 -0.02676992 -0.0072816135 -0.049164154 -0.031306077
0.0051905867 0.06828215 0.024734536 0.023046104 -0.011399143 0.04865042 -0.022792898 -0.0669286
0.02885381 0.0006939769 -0.030017061 0.01377886 -0.040452834 0.043826766 0.015405786 -0.03859503
0.00670367 -0.026390538 -0.054614957 -0.07083381 0.01938291 -0.02481377 -0.05336444 -0.0427975
-0.002382863 0.05209816 -0.0014910972 0.025435975 0.06379113 6.7793415e-05 -0.043835927 0.007881438
-0.04529204 0.027967233 -0.010442043 0.04262152 0.033049107 0.044435143 0.010543696 -0.067482375
0.02987662 0.030978544 -0.036226876 -0.047563165 0.057838988 0.0607327 0.0066703 -0.068663664
0.026007121 0.014042121 0.028293593 -0.017563475 0.027760092 0.0060252408 -0.03224696 -0.061310638
-0.037881996 0.025230754 0.028583927 0.019397343 -0.04201093 0.040729344 -0.045250345 0.026573831
0.0221235 0.03253547 0.028971396 -0.043471623 0.032626923 -0.013288105 -0.047292955 0.0044203163
0.028343642 -0.047207016 -0.022885336 -0.027870154 0.0281124 0.04460619 -0.011557722 0.044052243
0.067435384 -0.012010186 -0.034446333 -0.03795233 0.032130893 -0.019920094 -0.010803587 0.037478395
0.011678987 -0.009071641 0.007910675 -0.025103496 -0.001978676 0.059677124 -0.059037734 -0.01902909
-0.04181117 -0.00013273359 -0.017008329 0.005053729 -0.009803712 -0.030579401 0.01248048 -0.016039938

fc1.bias f4 [400]
00000000: 9009 9ebe c8e0 b9bd 64cb a6be 5ee1 b73e
00000010: d05a 4ebd 321b 5f3e ec12 963d 46ea d53e
00000020: 08f8 ea3e 745e 6fbe c0b0 cbbb e4a2 b43e
00000030: 06cd 213e b055 853d f23c 40bd 44aa 033f
00000040: 1e4d 58bc e50e a53d 6771 e93e e2d7 053f
00000050: 633a cb3e 7d60 723e e7d7 023f bc0b a73e
00000060: dd09 8ebc c446 b3be 881f dabd ccea b43d
00000070: 52ef 9f3d 76fd e9be 62eb d73e 689c 403e
00000080: 46af 3b3d 847f 4e3e 2dd1 d63e 468a d13e
00000090: f4ae 2dbe 6808 4dbe be74 f43e 0643 a73e
000000a0: 48bd 95be 3a79 d1be c7e2 643d 60b5 bf3e
000000b0: 33e1 003f 36c5 823e a004 ffbe b8f7 87bd
000000c0: 4e54 e0be 069b d43c 6494 48be 2563 223e
000000d0: dc32 abbe 8a01 88be 2469 ce3d 0ecd cbbe
000000e0: 0eca bdbe c03a bfbe c3d3 b03e 7e9a edbe
000000f0: 4f65 023f 5f70 e23e 0840 bfbd 043d 24be
00000100: 55b0 0f3e 5c4d 213e 63cd 7a3d 38d5 aabc
00000110: 1878 00be f783 d43e 619d 943e 0c2f 8fbd
00000120: 3449 debe ae56 cebe b9e8 9b3e 9e13 c43c
00000130: 7057 66bc 487a 8e3c 418b e43d 081c 9bbd
00000140: 7042 6ebd 7e12 5d3d aa2b b03e d1c9 2cbd
00000150: 0cb2 ac3e 0fcf 263e b32b 9a3e 52d8 afbe
00000160: a62c c93e 7646 7e3e 9320 5d3e 6a99 c5be
00000170: 37b8 c83e 1499 493d 12dc 0b3e 45c6 f73e
00000180: c216 d0be e2b7 8ebe c0e2 d4be 433a d53e
00000190: 9867 3b3e 9e08 b0be da7a 233e 5feb 043f
000001a0: e6e6 783e ea34 b23e e926 923e c89a d2be
000001b0: c0f9 c6be 920d 813d ad17 be3d f5fe 123e
000001c0: d6a1 f5be 78cf 45be 3083 79bd 04e6 633e
000001d0: 2897 cebe 2c45 f3be f4de 61be e803 87bd
000001e0: 0ea8 88be a89a fabd 7685 383e b70b a93d
000001f0: 2ad1 bbbe d8f1 0abe 8010 d5bd c25e ecbe
00000200: 20fa f4bc 7690 b0be bedd adbe 4045 12be
00000210: 22bf 99bc 94ab ec3e 5855 fcbd 27c8 c63e
00000220: 3ca7 963d 0996 993e 7c2c 7bbe 0ce2 5bbe
00000230: 9ede d1be ddb0 743d 36b9 99bd aa5d cb3d
00000240: 0d57 d13e 9631 dcbe d3b0 013f fde6 d83b
00000250: df89 333d 7982 8f3d 185b a0be 76ec d3be
00000260: 0460 d6be 3adb d23e c0dd c7bd 6565 183e
00000270: 677b 48bd 8f65 cd3e 6c02 b5be 00c7 9dbd
00000280: 7269 e43e c01a 0cbd b809 22be a3f5 0e3e
00000290: 005f ccbe a8a5 cdbd b65d d9be 4f8e ee3e
000002a0: 04e1 77be 8afe a2be 2ad4 e7be 4a7d 30bd
000002b0: 6a6b 1d3e c6a5 b6be 7036 01be 94a6 d43e
000002c0: 2063 febd b025 38be b09f 38be 2e9f 86be
000002d0: 49f9 513e 0cc4 48be b430 fcbe 60d8 61bd
000002e0: 44ea 6cbe 748f cbbe 2215 f0be 1c5c cfbe
000002f0: 62ae f2be e8cb 67be 489d 2fbe d70b c73e
00000300: c282 ef3e 0828 25be b1ac e13e 63f3 893d
00000310: 07cf c13c 8c0c 95be 587f a2bd 56f3 c3be
00000320: 0060 cc3e 5885 a0be 6dc3 9c3e bb4a 183e
00000330: b6fa af3e cc22 62be f8e4 cd3e 3d56 b03d
00000340: eaf4 d23e 5c58 e5be 7891 2ebe 08d4 48be
00000350: fedf 9bbe f035 95bd fae9 8ebe b01c 75be
00000360: b670 93bd a0a0 4bbe 6da8 963e b09c 37be
00000370: 1060 97be 96d9 ecbe 6c36 b83e f520 a93e
00000380: b4da b7be fc67 993e 3859 3e3e 205f e13e
00000390: 8f63 5f3d 5636 c03e 341a cd3e 1612 c0be
000003a0: 3377 db3d 9ac8 7c3e 3e4a a6be 48fc e63e
000003b0: 8da2 053f 24f9 4dbe 7ec5 903e b807 02be
000003c0: c0e6 8cbe b0d6 48bd c0fd 753e 45fa 043f
000003d0: 3278 ba3e 0d7a 123e c188 5f3d 753d 9d3e
000003e0: 291c 023f 935a 7cbd 68cb 9a3e cc4f 7dbe
000003f0: 8063 9ebe 3d46 be3e 3f8b 8d3e b25a f9be
-0.3086667 -0.09076077 -0.3257705 0.3591413 -0.050379574 0.21787718 0.07327828 0.417803
0.45892358 -0.23375875 -0.0062161386 0.35280526 0.15800866 0.06510484 -0.046933122 0.5143168
-0.01320198 0.080594815 0.45594332 0.52282536 0.39692983 0.2366962 0.5111069 0.3262614
-0.017338688 -0.35014927 -0.10650545 0.088338464 0.078093186 -0.45701188 0.4217177 0.18809664
0.04582145 0.20165831 0.41956463 0.40925807 -0.1696127 -0.20022738 0.47745317 0.32668322
-0.29245973 -0.409128 0.055880334 0.37443066 0.50343627 0.25541085 -0.49808216 -0.066390455
-0.4381432 0.025952827 -0.19587857 0.15858133 -0.3343724 -0.26563674 0.10078648 -0.39804882
-0.37068218 -0.3734951 0.3453656 -0.4640693 0.50935835 0.44226357 -0.09338385 -0.160389
0.14032109 0.15752167 0.06123103 -0.020853624 -0.12545812 0.4150693 0.2902632 -0.06991395
-0.43415225 -0.40300506 0.3045099 0.023935135 -0.014058933 0.017392293 0.11159373 -0.07573706
-0.05816883 0.053972714 0.34408313 -0.042184655 0.3372959 0.16289924 0.30111465 -0.34344727
0.39291877 0.24831566 0.21594457 -0.38593608 0.39203045 0.049218252 0.13658169 0.48393455
-0.40642363 -0.27874666 -0.41579247 0.41646013 0.18301237 -0.34381574 0.15964833 0.5192165
0.24306831 0.34805995 0.2854531 -0.41133714 -0.3886242 0.063014165 0.092818595 0.14355071
-0.47975034 -0.19317424 -0.060916126 0.22255713 -0.40349698 -0.4751371 -0.22057706 -0.06592542
-0.26690716 -0.122365296 0.18019661 0.082541876 -0.36683017 -0.13568819 -0.10403538 -0.46166044
-0.029904425 -0.34485215 -0.33958238 -0.1428423 -0.018767897 0.46224654 -0.123209655 0.3882458
0.07356116 0.2999728 -0.24528688 -0.21472949 -0.40990156 0.059738982 -0.07506029 0.099299744
0.40886727 -0.4300658 0.5066044 0.006619333 0.043832656 0.070073076 -0.313195 -0.41391343
-0.4187013 0.41182882 -0.09759092 0.14882429 -0.04894581 0.40116546 -0.3535341 -0.07703972
0.44611698 -0.0342052 -0.1582402 0.1396089 -0.3991623 -0.10041362 -0.42454308 0.46592948
-0.2420693 -0.31834823 -0.45279056 -0.043088235 0.15373006 -0.3567335 -0.12618423 0.4153334
-0.1242125 -0.17983127 -0.18029666 -0.2629332 0.20505251 -0.19606036 -0.49255908 -0.055137992
-0.2313624 -0.39757884 -0.46891123 -0.4049996 -0.4739867 -0.22636378 -0.17149842 0.3887622
0.46779448 -0.16128552 0.44077066 0.067358755 0.023658289 -0.29111135 -0.07934445 -0.38271588
0.39916992 -0.31351733 0.30617848 0.14872257 0.34370965 -0.22083586 0.40213752 0.08610199
0.4120248 -0.44793975 -0.1704768 -0.19612134 -0.3044433 -0.072856784 -0.27912885 -0.23936725
-0.07199232 -0.19885492 0.29425374 -0.17930865 -0.29565477 -0.46259755 0.3597902 0.33032957
-0.35909045 0.29962146 0.18588722 0.44017887 0.054538306 0.37541455 0.40059054 -0.37513798
0.10716095 0.24685898 -0.32478517 0.4511435 0.5220116 -0.20114571 0.28275675 -0.12698257
-0.27519798 -0.049032867 0.24022579 0.5194438 0.36419827 0.14304371 0.054573778 0.3071095
0.5082422 -0.061609816 0.30233312 -0.24737471 -0.30935287 0.37162963 0.276453 -0.48702008

fc2.weight f4 [300, 400]
00000000: a2a2 d93c 032c 2ebd f1dc 5fbd 9ea4 5b3d
00000010: e019 c4bb df95 943c aece 10bc e023 2c3c
00000020: 7865 66bd 277c a7bc 4d27 e1bb a9e1 94ba
00000030: 7d77 093c 269b 2abd 64c3 4cbc f9d5 25bd
00000040: 1570 23bd 095c 94bc 9703 44bc 33d9 1bbd
00000050: c0bf ffbb 0489 e2bc 261c bdbc 5022 69bd
00000060: c462 e7bc 9c2e 56bb 9879 64bd e96a c8bc
00000070: 7db5 57bd 3851 743c 2924 0a3d dbc7 d0ba
00000080: 2a2d 863b 9d13 123c dccd 593c f0a8 253d
00000090: 0183 f33c 676b 18bd 3ecd d83c 0248 57bc
000000a0: 7c85 65bd eddc 5dbd 7932 ffbb 817f e63b
000000b0: 4511 57bd bed9 ac3b 228d 68bd 7d83 ab3b
000000c0: d5c0 17bc e904 efbb ae66 373d d487 133c
000000d0: f464 663d 54ad 6dba eb74 463c 5af2 083d
000000e0: c0c1 373c 945c 253d f787 a03b 2731 bcbc
000000f0: 88a6 673b 93c3 fb3b 21a7 13bd 37ec 25bd
00000100: 9923 05bd 1b7b c8bc 30ed 6bbb f88c 21bd
00000110: b279 4dbd ef2d 023d 8258 2abd ed04 4b3d
00000120: d160 0e3a 0200 4f3c 2d4a a4bc 3375 f0bb
00000130: c55f 12bd 265e babb 2f46 563d 4c69 3f3d
00000140: 1210 5abd 3581 21bd 3f7f 66bc 06ca e73c
00000150: 2bcd 563d 7291 6c3c a3bb 393d 49e8 943c
00000160: f439 65bd c6f3 febb f468 bcbc 4cae 123d
00000170: 845b f8bc 41d6 6fbc 90d0 a73c f04e 563b
00000180: af51 1abc 1a59 1c3d 969b 263d c77d 21bd
00000190: 7f65 483d e23d f2b8 32e6 313d 581f 443d
000001a0: 540c 333c b9f6 56bd 1a11 66bd e448 34bc
000001b0: e9d2 12bd 4ff6 be3c 3f00 38bd af76 b03c
000001c0: 22d9 acbc 18a1 2f3c 5679 bcbb b0ff dd3c
000001d0: 1c83 023d 14d4 10bd 5358 14bd 2338 9ebc
000001e0: 6f9a 84bc ecda 4b3b 128b 063d ef5c 26bd
000001f0: dd43 15bd 63ad a23c 0112 41bc 380e aebc
00000200: d9e1 cbbb 78b5 513d b186 533d 61f2 89bc
00000210: 22ff 243d f160 5dbd 360c 34bc 3b30 a23c
00000220: f7ea 5fbd f9dd 62bd 304b 5b3d 44de 74bb
00000230: 2305 66bc cb89 f2bc 4b21 6cbd 97dd 6ebc
00000240: e7db da3c 775c c13c 26ce 5cbd cb3f 3cbd
00000250: 10d7 f93c 2b84 37bd b17e 57bd f3dd 183d
00000260: dc74 d53c b45a 063d 8290 02bd 2b35 153d
00000270: ca15 47bd 49ce fa3c 9ec5 cb3c b9c9 43bd
00000280: aa6a 54bd 341f e6ba 8059 2b3d cd7a 313d
00000290: 0fb8 82bc 7fbb 473d 723d 7ebc 9ee8 62bd
000002a0: 3f78 e13c 044c a73b c559 593d d717 44bd
000002b0: 8bcd 143c 5aa6 e53c a31a 7c3b 8320 313d
000002c0: 9782 51bd caa4 2f3c cf91 dcbc 4ed2 07bd
000002d0: 3b71 af38 a63e 9ebb b022 a3bc a0c0 0ebd
000002e0: ca2e 183d a2f0 603d 1159 03bd 7206 a73c
000002f0: 4e7c 13bd 15bb 27bd ba8f 5d3d 9dec c239
00000300: 6c91 1a3d 9fd2 c1bc 6446 fabc 2764 c93c
00000310: 1b18 47bc 63f8 583c fbdc 07bd a9e8 b73c
00000320: 21e6 833c 0f46 53bd de85 933c f845 363c
00000330: 32c5 e03c 60a5 403c cb6e efbb 9638 1dbd
00000340: eae3 c5bc 0615 e33c ec74 5b3d d4bd 883c
00000350: b8eb 90bc ecb2 18bd cb52 563d 22c7 5abc
00000360: c756 db3b 0658 653d 6985 fabc a232 ea3c
00000370: c286 003d 93be 393d 193b 253d 879c 093b
00000380: 2d0f 363d 938a 3dbd 3deb e1bc b5fd ee3c
00000390: a79d 933c 4e24 43bd a764 4f3d 160d 08bc
000003a0: 6894 2a3c 0057 063d 84bd 8cbc 04f4 393d
000003b0: ade5 11bd cd6d fdbc ba97 4f3d 4a57 9d3c
000003c0: e331 8b3b de82 123d fb34 f63b 8db5 c6bc
000003d0: d233 bc3c 1b5d 773c b216 593b deef 243d
000003e0: 9459 813b e98f 273c e360 4f3c 1b39 e83c
000003f0: 0579 4c3d bea6 9ebb 6ca8 a1bc 237b e4bc
0.026566807 -0.04252244 -0.054654066 0.053623788 -0.00598453 0.01813787 -0.008838339 0.0105066
-0.056249112 -0.020444943 -0.00687114 -0.0011358756 0.008390305 -0.041651867 -0.012497757 -0.040487263
-0.03990181 -0.018110292 -0.0119637465 -0.038048934 -0.007804841 -0.027653225 -0.023084711 -0.05691749
-0.028245337 -0.003268159 -0.055780023 -0.024465041 -0.052663315 0.014911942 0.03372589 -0.0015928702
0.0040947394 0.008915809 0.01329371 0.040444314 0.029725553 -0.0372118 0.026465055 -0.013139727
-0.056035504 -0.05416577 -0.007787999 0.0070342426 -0.052506704 0.0052749803 -0.05677522 0.0052341805
-0.009262283 -0.0072942865 0.044775657 0.009004552 0.05624862 -0.00090666604 0.012112836 0.03343425
0.011215627 0.040371493 0.004899021 -0.022972656 0.0035347063 0.0076832264 -0.03604806 -0.040508475
-0.03250465 -0.024472764 -0.003599953 -0.03944108 -0.050164886 0.031782087 -0.041588314 0.049565244
0.0005431297 0.012634279 -0.020054901 -0.00733819 -0.035735864 -0.005687493 0.052313026 0.04673128
-0.053237982 -0.039429862 -0.014068424 0.028294574 0.052441757 0.014438974 0.04534496 0.018177168
-0.05596347 -0.007780525 -0.022999264 0.035810754 -0.030317076 -0.014638484 0.020485193 0.003270086
-0.009418889 0.03817091 0.040675722 -0.03942659 0.04892492 -0.00011550986 0.043432422 0.047881454
0.010928232 -0.052481387 -0.056168653 -0.011003707 -0.03584567 0.023310808 -0.04492211 0.021540968
-0.02109963 0.01071956 -0.005751769 0.02709946 0.031863317 -0.035358503 -0.036217045 -0.019313877
-0.01618692 0.003110583 0.03284747 -0.040615972 -0.036441673 0.019858068 -0.011784078 -0.021247014
-0.0062219915 0.051198453 0.051642124 -0.016839208 0.040282376 -0.05404753 -0.010989239 0.019798389
-0.05466744 -0.05538747 0.0535385 -0.0037363926 -0.014039311 -0.02960672 -0.05764894 -0.014579198
0.026716186 0.023603661 -0.053907536 -0.045959275 0.030498058 -0.04480378 -0.052611057 0.037321042
0.0260567 0.032801345 -0.031876095 0.036427658 -0.048604764 0.030615943 0.024874505 -0.0477998
-0.051859535 -0.0017556907 0.0418334 0.043330003 -0.015956907 0.048762795 -0.015517579 -0.055397622
0.027523158 0.0051054973 0.053064127 -0.047874298 0.009082208 0.028033424 0.0038468025 0.043243896
-0.05114993 0.010720441 -0.026924996 -0.033159547 8.365741e-05 -0.0048292456 -0.019914001 -0.03485167
0.037153997 0.054916985 -0.032067362 0.020388816 -0.036007218 -0.0409499 0.054092146 0.00037178854
0.03773634 -0.023660002 -0.030551143 0.02458389 -0.012151743 0.013242814 -0.033169728 0.022449808
0.016100945 -0.051580485 0.018008169 0.01112508 0.02743778 0.0117581785 -0.0073069087 -0.038384043
-0.02415653 0.027719986 0.053578302 0.01669208 -0.017690524 -0.03728001 0.05232505 -0.013353141
0.0066936943 0.05599215 -0.030581193 0.028588597 0.031378515 0.04534776 0.040339563 0.0020997839
0.044448067 -0.046274733 -0.02757799 0.029173711 0.01801951 -0.047642045 0.0506331 -0.008303901
0.010411359 0.032797813 -0.017180212 0.045398727 -0.035619427 -0.030936146 0.050681807 0.019206662
0.0042478903 0.035769336 0.00751364 -0.024256492 0.022973929 0.015097882 0.00331251 0.040267818
0.003947446 0.010227182 0.012657377 0.028347543 0.0499201 -0.0048416546 -0.01973363 -0.027890747

fc2.bias f4 [300]
00000000: 5786 d8bc bd3d 91bc a3e1 f53c 12f1 3dbd
00000010: 2cbc 163d 9086 39bd 306b 143d 30ec c33c
00000020: fff4 823d 27b5 4e3d 91c2 893d 15aa 24bc
00000030: 2a05 223d 736c 8cbb 2a57 1dbd 002a f7bc
00000040: 40fb cfbc 6863 97bc f837 1abd 261f 94bc
00000050: a878 313d 7b6d 74bc ad08 fb3c 5496 443d
00000060: 228d e9bc 5fd7 493d cddc 233c 11a9 8cbc
00000070: e7c1 463d c37d ee3c c82d 813d 9a94 a73a
00000080: 3b70 09bd 604b 9e3c 40eb 99bc 0718 423d
00000090: 76eb 313d 37c9 153d 93b5 f93c 8025 32bc
000000a0: e296 20bd 3f00 87bc 6993 b7bc 179f 49bd
000000b0: 803a 33bb 0792 40bd 3d1b 06bd d386 693c
000000c0: 372e 92bc ab97 f43c 7775 08bd b997 babb
000000d0: 9a14 ae3c fae5 a0bc 5a7f 193c 67c9 9e3b
000000e0: 2885 673d da94 293d d015 973c 2fb6 913c
000000f0: 358b 843c ea56 08bd 873a b73c a981 943c
00000100: cd08 14ba 7959 493d 61c9 5fbc 3627 e93c
00000110: 2c79 cb3d b621 743d 266e 863c f7bf b3bc
00000120: 7f31 143d e71b ddbc d6d8 45bd e58d 25bd
00000130: 8b7d 683d 3452 c53c cdd4 783c 21d9 b83c
00000140: e3eb cebc 450b 473d 925d 373d 8b80 873d
00000150: 9a31 7b39 1a1a 093d 9fd5 59bc ed60 18bd
00000160: dad2 1abc b7fa c33c a70b 653d 6d7f a4bc
00000170: 571e 993c 5fa2 233d 3357 c33b 345b 213c
00000180: dbdd 1b3d 05ee 0f3c 402e 29bd 7017 0c3d
00000190: fd9b 8abc 33af 353d 2b61 92ba 2c01 4ebc
000001a0: 1c49 803d 4656 e8bc 4243 d3ba 4989 b63b
000001b0: b022 ec3c 9afb 4bbd d715 2e3d 0f6e 8bbb
000001c0: 5802 303d 0373 f5bc fe20 993c d936 5b3d
000001d0: 30c7 d5bc 219c fe39 75e8 213d 0422 8c3d
000001e0: e885 57bc 330d d63b 9728 2bbd 0040 8abc
000001f0: 499e 203c 4ec4 313d 3f94 1b3d 50b6 aa3c
00000200: ce1c e53c 10b3 2b3c 23be f6bc ea41 e5bc
00000210: 5542 453e 8727 293d 54d4 5e3d ed52 4e3c
00000220: 0dc6 fc3c 56fd 713d ed13 69bc fe56 1c3c
00000230: f019 f83c 5fdd c33c 5ade e9bc 0c30 bb3c
00000240: 9f07 8dba bd6c c7bc 8d3e 96bc 3572 783d
00000250: 5ace 343d bd10 afbb f628 cd3c 27de e43c
00000260: 8cc7 283d 9a73 de3c 40fc 843d b3bf 98bb
00000270: 68ef 09bd 657d 98bc da65 a03b 00aa 00bb
00000280: 2586 7c3d eb11 0a3d fe43 263d ddc3 243d
00000290: 87ee a3bc 6410 123d 8dd1 b3bb 69a7 a23c
000002a0: 3dee 94bc 1a81 8d3c cf30 0a3d fa8b 30bc
000002b0: 4015 06bd cd45 643d 5802 4d3d 8d0c 5f3c
000002c0: 2552 413d 02f8 293d a70b 9fbb 8de8 f03c
000002d0: 2204 e4bc f59a aa3c aabd bb3c d1e0 f8bc
000002e0: 56ea f63c ef5f 013b 05af 5c3d 7b45 743d
000002f0: 83a1 313d 5240 3cbc b962 183c cd38 0ebb
00000300: e920 3d3c e2cb fdbc c93b 263d da9c 2fbb
00000310: 730b 923c 150e d43c 3a42 bfbc 4d12 0a3c
00000320: 189c 0cbd 5ce5 813b f78e 5d3d 151c 36bd
00000330: 297b 84bc 7809 543d d8f6 2ebd df63 5c3c
00000340: 479a 01bd 030e ab3b d7e5 16bd 0015 8bba
00000350: 5b57 38bd 4d21 f93c 5537 4b3d b8b8 dcbc
00000360: 88ce 9f3c fb2e 2fbd b0a5 a0ba 6e02 043d
00000370: 4045 883d 7e8f d9bc 1dab 0c3d 60b4 ffbc
00000380: 0615 c539 6755 413c 92a3 b63c 10f0 d2bc
00000390: db5f a23c bc66 bdbc 3b89 b13c 4634 2f3d
000003a0: cd9d d93a ec59 a13c 9a9c 353d 8589 39bd
000003b0: d932 403d dc16 5e3d 2af0 0f3d c0ca 543d
000003c0: b3f3 10bc e626 b13c bf52 333c 4892 663d
000003d0: a0f4 923c 03ec e23c 16c9 3c3d 9ba4 00bd
000003e0: 9dd6 893c 33ae 7f3b 3ce2 343d f08f 23bd
000003f0: a7c0 dbbb 0df0 5f3c cda7 e93a 5c31 bd3c
-0.026431246 -0.017729634 0.030014819 -0.04637248 0.03680055 -0.045294344 0.036235034 0.023916334
0.063943855 0.05046573 0.06726564 -0.010050316 0.039555706 -0.004285389 -0.038413204 -0.030171394
-0.02538836 -0.018480018 -0.037651032 -0.018081259 0.043327957 -0.01491868 0.030643785 0.047994927
-0.02850968 0.04927766 0.0100013735 -0.01717046 0.048524763 0.029112702 0.0630756 0.0012785376
-0.033554297 0.019323051 -0.018788934 0.047386196 0.043437444 0.036568847 0.03048209 -0.0108731985
-0.039206393 -0.01647961 -0.022409158 -0.049223986 -0.00273481 -0.047014263 -0.03274082 0.014253336
-0.017844303 0.029857477 -0.03331515 -0.0056943563 0.021250058 -0.019640911 0.009368742 0.0048457864
0.056523472 0.04140172 0.018443018 0.017787067 0.01617966 -0.033286013 0.022366775 0.018128233
-0.00056470634 0.049157593 -0.013658852 0.02846108 0.09935221 0.05960246 0.016409945 -0.021942122
0.036180016 -0.026990844 -0.048302494 -0.040418524 0.056760352 0.024087049 0.015187454 0.022564473
-0.025258964 0.04859473 0.04476697 0.066163145 0.00023955703 0.033472158 -0.01329556 -0.03720181
-0.009449685 0.023923261 0.055919316 -0.020080293 0.018691225 0.03994977 0.0059613227 0.009848405
0.038053375 0.008784776 -0.041303873 0.03420204 -0.016920084 0.044356536 -0.0011167874 -0.012573522
0.062639445 -0.02836145 -0.0016118067 0.005570565 0.028825134 -0.049800493 0.042501297 -0.0042550634
0.042970985 -0.029962068 0.01869249 0.053519104 -0.026095957 0.0004856298 0.03952833 0.068424255
-0.013154484 0.006532335 -0.041786756 -0.01687622 0.009803363 0.0434001 0.037983175 0.020838886
0.027967837 0.010479704 -0.030119961 -0.027985532 0.19263585 0.04129746 0.05440171 0.012593013
0.030856157 0.05907949 -0.014225942 0.009542225 0.030285805 0.023909269 -0.028548408 0.022850059
-0.0010759718 -0.024343843 -0.018340373 0.06065579 0.044142105 -0.0053425715 0.025043946 0.027937962
0.041205928 0.027154732 0.06493425 -0.004661524 -0.03367558 -0.01861448 0.004894954 -0.0019632578
0.061651368 0.033708494 0.040592186 0.040225852 -0.0200112 0.035660163 -0.005487627 0.019855218
-0.018180007 0.017273474 0.033737954 -0.0107755605 -0.03273511 0.05573063 0.050051063 0.013613832
0.04719748 0.041496284 -0.004853684 0.029407764 -0.027834002 0.020825842 0.022917587 -0.030380638
0.030141037 0.0019741019 0.05387785 0.059636574 0.04336692 -0.0114899445 0.009300881 -0.0021701336
0.011543491 -0.030981008 0.04058436 -0.0026796372 0.017827725 0.025885621 -0.023347009 0.008427215
-0.03432855 0.0039641093 0.05409142 -0.044460375 -0.016172009 0.051766843 -0.042715877 0.0134515455
-0.03164127 0.005220176 -0.036840286 -0.0010611117 -0.045005184 0.030411387 0.049613316 -0.02694355
0.019507661 -0.042769413 -0.001225641 0.03222888 0.066538334 -0.02655768 0.034342874 -0.03121394
0.00037590432 0.011800147 0.022294793 -0.025749236 0.019821098 -0.023120277 0.021671882 0.04277446
0.0016602814 0.019696198 0.0443388 -0.045297164 0.046923492 0.05422102 0.035141148 0.05195117
-0.008847165 0.021624994 0.010945021 0.05629185 0.017938912 0.02770043 0.046090208 -0.03140698
0.016825968 0.0039013743 0.044161066 -0.03993219 -0.0067063156 0.013668072 0.0017826498 0.023094825

fc3.weight f4 [1, 300]
00000000: d7c8 77ba 3f3c e3ba 5e44 063a 1f2d c0b9
00000010: 26a0 9b3c 98ee eb36 c1fb d7ba 54f3 4238
00000020: 1bc1 b53c 6c92 993c a12b b33c 89cd a63c
00000030: 6f96 2bba 09f8 b2ba c1c0 263b ea40 02ba
00000040: 1cf4 22bb ac09 8f3c 5059 083a b957 b53c
00000050: 0b72 a83c d710 ae3c a93e d03a 88fe a23c
00000060: 74a1 ccb9 33f5 a93c d1db 8d3a 86cd 9c3c
00000070: 4cc9 4d3a ab94 ab3c 99e1 973c 538a 12bb
00000080: a0bf 26ba c3c1 2039 c16d c9ba b9fa ac3c
00000090: 0b29 a93c e42e 043b 973b 123b d7f5 fa3a
000000a0: 8ab5 f23a b342 983c 1e40 553a 52b0 ad3a
000000b0: 85db 15b8 4723 8bba cd8b 40bb 0462 e439
000000c0: d7c0 b839 9ae4 9d3c 01c0 e3ba d28a a93c
000000d0: 85ee b8ba 18c0 bf3c 3964 67b8 992f 303b
000000e0: 1d14 8f3c 0363 4a3a e166 063a 7fc7 aa3c
000000f0: 4a5a b03c ad87 0cbb 253b d3ba ac9b 923c
00000100: be50 963c cb17 a83c 631a 2d3a 2dd5 af3c
00000110: 60d9 983d e28d c53c 5dde 9a3c e515 0ebb
00000120: f458 903c 48a1 7c3a d739 b1ba 1b0f 1ab8
00000130: 7241 aa3c 9c88 873c 3b59 003a 5cfd a83c
00000140: 33e4 b13c 7f8a 89ba 2642 01bb 14ef 933c
00000150: 0ac9 bc39 69c8 803a c32f ba3c 8ebc 1e3b
00000160: 3b84 a1ba 9410 d4b8 9ee1 a23c 5d26 b03c
00000170: e2cd 33bb 4db9 9d3c 318c cdba c914 a33c
00000180: b8b2 af3c 7d32 9b3c 81ac 33ba e230 a53c
00000190: f266 17b9 ac94 24b9 6eac 82ba b72a af3c
000001a0: da9a 9f3c f6a8 d03c 7004 b93c a1a7 b439
000001b0: cd98 b9b9 a8d7 0ebb eb87 a93c 46a7 9d3c
000001c0: 79e1 8bba 0238 c53a 9a88 a03c f35e ae3c
000001d0: 4db0 273b a11d 9c3c 99d0 adba 99b6 b03c
000001e0: a29e a23c 3c7b 4e3a b5af 333b fbfd de3a
000001f0: c8a8 ba3c 475a a63c e79e ebba cf3e d5ba
00000200: 1ce0 9d3c acc9 aa3c ead8 41bb 6145 b83c
00000210: 5a8b ca3e 73b8 d9b8 a4d8 a23c a8f0 05ba
00000220: b251 973c 9d5d 973c cb78 22ba dfc0 a93c
00000230: 04af dcba 2740 973c 740d 203b 70db 9f3c
00000240: 2613 a53c f034 aaba 4402 323a 286f a43c
00000250: 2747 a839 6a66 5439 a926 ae3c 5443 0b3b
00000260: a5a9 f839 f3b7 193b b499 a63c fa1e 9bb9
00000270: b778 0e3a 6c87 a33c b0aa 93b8 bf00 ccba
00000280: f411 8d3c 6426 0cbb df38 a23c fc2d 07bb
00000290: 6a35 e13a 168f a63c 876e 6eba b00c a73c
000002a0: 9c9f dc3a 4c3b f839 3128 5db8 2f31 e8b9
000002b0: 521d 59b9 8c3a 853c ec36 9a3c 644b 6538
000002c0: b807 b13c a094 943c 8d67 8338 104d bdba
000002d0: 8341 923c 6f0a 9c3c e5cb b43c 2c3c 943c
000002e0: 75ef b139 3c1d ab3c 55b9 a73c ffa9 933c
000002f0: 16ff 9d3c 3b04 853c fe47 a53c 8ff0 823a
00000300: 7c64 963c e018 993c 7daa ad3c 1052 b83c
00000310: 86e8 da38 fec8 b43c 43a8 1e3b fa1d 9d3c
00000320: eb10 d0ba e19a aa3c 2955 ab3c 70ea b03a
00000330: dce3 33bb 1745 a93c 0635 16bb c6f2 ad3c
00000340: dd66 a5ba 56d8 ac3c adfb 8dba 3ef2 1d3a
00000350: 27c6 05ba aabe 283b abcd a03c 9f58 d03c
00000360: 0042 29ba 9436 0d3a 18cf baba 5265 883c
00000370: 24b6 8e3c 2957 9d3c 2e86 9a3c dbb9 b7b9
00000380: 4df5 b23c f7bb 55b7 ffcd 8f3c c070 f73a
00000390: 3fef a33c 126f a63c 010c ae3c 3720 b63d
000003a0: 6939 deb9 0f49 ab3c b428 283b d374 adba
000003b0: 0dc2 9f3c d042 953c 5b99 0d3b 3d42 bf3c
000003c0: b03c b93a 69f3 ddb8 0084 b53c 7382 b63c
000003d0: a743 263b 94c9 b43a 9f22 a13c caf9 bf3c
000003e0: 7495 33bb fcd0 e9ba 8fdc a63c b6df a939
000003f0: 6475 38bb 7358 ca39 4c35 003a 9b0e a63c
-0.000945223 -0.001733668 0.0005121882 -0.00036654712 0.018997263 7.0313217e-06 -0.0016478227 4.647982e-05
0.022186806 0.018746577 0.02187139 0.020361679 -0.00065455487 -0.0013654243 0.002544448 -0.00049687794
-0.0024864739 0.017460667 0.0005201297 0.022136556 0.020562192 0.021248264 0.0015887815 0.01989676
-0.00039030204 0.020746803 0.0010822957 0.01914097 0.0007850125 0.020944914 0.01854019 -0.002236028
-0.0006360952 0.00015330971 -0.0015367792 0.021115648 0.020649454 0.002016955 0.002231335 0.0019146752
0.0018517238 0.018586492 0.00081348594 0.00132514 -3.572881e-05 -0.0010615372 -0.0029380203 0.00043560576
0.00035238892 0.019274045 -0.0017375947 0.020696077 -0.001410917 0.023407027 -5.516803e-05 0.002688384
0.017465645 0.00077204424 0.00051270245 0.02084708 0.021527428 -0.0021443174 -0.0016115649 0.017896496
0.018349048 0.020519158 0.0006603358 0.021463955 0.07463336 0.024115507 0.01890486 -0.002168053
0.017620541 0.000963707 -0.0013521266 -3.673053e-05 0.02078316 0.016544633 0.0004896109 0.020628624
0.02171526 -0.0010493546 -0.0019723265 0.018058337 0.0003600794 0.0009825352 0.022727853 0.0024221274
-0.0012322733 -0.00010112036 0.019882973 0.021502668 -0.0027435948 0.019253397 -0.0015682039 0.019907372
0.021447524 0.018944973 -0.0006854013 0.02016491 -0.00014438832 -0.00015695643 -0.0009969601 0.021382673
0.019483019 0.025471192 0.022585124 0.0003445717 -0.00035399795 -0.0021796022 0.020694694 0.019244801
-0.0010672054 0.0015046599 0.019596387 0.02128551 0.0025587261 0.019057097 -0.001326102 0.021571444
0.019851033 0.000787664 0.0027417962 0.0017012948 0.02278556 0.02030672 -0.0017976434 -0.0016269329
0.019271903 0.020848118 -0.0029578754 0.02249402 0.39559442 -0.00010381723 0.019878693 -0.0005109408
0.018471573 0.018477255 -0.0006197809 0.02072185 -0.0016836827 0.018463207 0.0024422081 0.019513816
0.020150732 -0.0012985747 0.0006790499 0.020072535 0.0003209647 0.00020256048 0.021258669 0.0021249847
0.0004742864 0.002345559 0.020336963 -0.00029586983 0.0005434858 0.019962035 -7.041299e-05 -0.0015564187
0.017220475 -0.0021385187 0.019802509 -0.0020626774 0.0017182056 0.0203319 -0.00090954493 0.020391792
0.0016832235 0.00047346426 -5.2727937e-05 -0.00044287133 -0.00020705655 0.016263269 0.018825017 5.4668068e-05
0.021610126 0.018137276 6.2658546e-05 -0.0014442522 0.017853504 0.019047944 0.02206988 0.018095098
0.0003393848 0.020887963 0.020474115 0.018025396 0.019286674 0.016237369 0.02017593 0.0009989905
0.018358462 0.01868862 0.02119946 0.022500068 0.00010438361 0.022068497 0.0024209179 0.019179333
-0.0015874183 0.020825805 0.020914631 0.0013497602 -0.0027449047 0.020662827 -0.0022919788 0.021233927
-0.0012619157 0.02109925 -0.0010832452 0.00060251716 -0.00051030744 0.002574841 0.01962932 0.025432883
-0.0006456673 0.0005386856 -0.0014252393 0.016649876 0.017420836 0.0192066 0.01886281 -0.00035042953
0.021845484 -1.2739553e-05 0.017554281 0.0018878207 0.020011542 0.020316634 0.021245958 0.08892863
-0.00042385914 0.02090886 0.0025659027 -0.0013233669 0.01950171 0.018220335 0.00216063 0.023347015
0.0014132466 -0.0001058344 0.022157669 0.022279 0.0025369914 0.0013792985 0.019669829 0.023434538
-0.0027402313 -0.0017838771 0.020368842 0.0003240087 -0.0028146142 0.00038594342 0.00048907544 0.020270636
