other_algorithms/ddpg/ddpg-1/checkpoint_critic.pth (torch, 494188 bytes, 5 tensors)

fcs1.weight f4 [400, 4]
00000000: 33fa 923a 6af8 173d 535b d33c 0775 8c3c
00000010: 4022 d73b 273b f3bb fa58 32bc eaa3 493d
00000020: 07c3 343d abdc 033d 9aab 4c3b b310 88bb
00000030: 6bb9 dc3c bebe 023d adc0 593e cd6d 943d
00000040: 6dc7 e8bc 8226 003d 65b9 493d e024 193c
00000050: f91f 9bba fd4f f63a 3dac 4c3e b45e 1d3d
00000060: 4c08 4ebc 8041 603d 0550 943e 06a2 653d
00000070: 8e6a 2f3c 574d 8c3c 4b47 033e 9f65 0cbc
00000080: 6c8c e33b 5935 a43b 79ce f93d 1553 d1bc
00000090: edc4 ca3c a24e 20bd 932f 0fbc 938b 37bd
000000a0: 2f63 9b3c 2968 323d 6ceb 54bd 6b9e 243d
000000b0: 000a 58bd 87d2 ae3b 54b7 903e 127b f13c
000000c0: fca2 2b3d 4de6 803c 4c1a 793e 9989 243d
000000d0: 2e35 0abb 32d6 563d da95 773e 2181 963c
000000e0: 3fae d03c 31db 2cbd b7b5 3dbf 5d5f b2bc
000000f0: 4ef3 013c 1a6a e53b d27b d33d e828 5bbc
00000100: c029 963c 4de6 44bb 2006 ecbc 0db6 cb3c
00000110: f454 353e 034c ab3d 71f6 f63e 631e eebc
00000120: 1208 9ebc f155 34bd 54a4 3b3e 7116 94bc
00000130: b76a 033c 9b0b 283d 8718 263e 5ac9 aa3c
00000140: 5ecc 8e3c 7ed0 dabb 0c41 5c3e 4511 3c3c
00000150: 4f7c f2bb ad94 1a3d 2475 4a3e 5686 37bc
00000160: a2c7 e8bc e764 fb3b beb2 d83d 0f65 5c3c
00000170: f041 75bc a2bd 643c 7b1a 4b3e ff59 923d
00000180: 70db 193d edb7 d1bc 8850 4c3d 337b 8ebc
00000190: 2ad2 483d d891 433d e32c 2f3d 937e 283d
000001a0: 103a 1b3d 804c 413c cd29 293d c0a6 323d
000001b0: 71e3 cf3a 775d 48bd 2d3d 8d3f 4b5c 343e
000001c0: a5ed 6ebc 6fcb 3dbb 1913 b33e 948e d13b
000001d0: 4d17 1d3d ba47 c5bc 1882 0a3d 285b 20bd
000001e0: c565 27bc ba28 a83c a101 8e3e 4333 833d
000001f0: 5c19 263b 868d b6bc d2ac a43e a496 a53c
00000200: 8a2a 5fbd 3506 1d3d 4671 583f 7588 05bc
00000210: 7f60 50bd f953 12ba 8ad3 343e 01a7 9a3c
00000220: 737b 953c 0900 1c3d 7f8f 403e aae7 3b3d
00000230: 80dd 39bd a9c1 a13c 927d 883e 22a3 e83c
00000240: d80e 0bbd 631c 9dbc d57b 223d e7e8 30bc
00000250: adcc a9bc 8a22 3abd 33bf f8ba 25e9 28bd
00000260: a3d7 52bd 57a9 0dbb 761b 563e c1c6 893d
00000270: 9979 9e3c 378f 3b3d 5313 653e 315c 003d
00000280: 1a86 993b ed55 453d b85f 293d c03e a03b
00000290: 9dbe cbbc cdf3 9e3b 5ae1 44bd c566 3a3d
000002a0: 46e3 713d fe5e ae3d 2774 583e 0248 483d
000002b0: 719a 6a3c 3c39 e9bb 09ef 1d3e dcbe 803c
000002c0: 3229 c63b 25b6 0f3d 9abd 433e 453f 913d
000002d0: dbd2 7dbd d2ab 833c e760 d63d 2d10 e53a
000002e0: 3a85 3cbd 4b7c 4a3d 0d3f e83b 8326 973c
000002f0: 139b a13c 1386 49bc 3a48 63bc 33df ea3a
00000300: 671b 8b3b 6739 393c 838b 2bbd 40d6 20bd
00000310: 3fd5 183c 2c41 6f3d 8612 d63e 4917 bdbc
00000320: 0733 853c cd5e 95bb fa7b c33c 8dd8 c73c
00000330: 7711 863d ed59 103d ddfa 883e 30a4 4d3d
00000340: d073 fdbc cd2e 5b3b 835e 2a3d c0a7 26bc
00000350: 6d5d 1b3c 2382 e43c 0342 16bd 239c 9b3c
00000360: 2b29 d5bc 7647 3b3d e23d dc3e a4f8 4e3d
00000370: b3a2 45bc 2f07 13bd 27b9 db3c da0e d5bb
00000380: 333f 9eba a740 bcbc f549 103d 0dcd f03b
00000390: a5d0 3abd cd51 b0ba f569 393d 4a77 ce3c
000003a0: 400f f8bc 2f6e 213d 0df3 753e a34b 4f3d
000003b0: 73ea 1e3c 13a3 033d 5d71 26bd 2d97 ad3c
000003c0: 4d1f 793b 0500 41bd e5d1 153e a63f 86bc
000003d0: f9d4 68bd 2b2e 87bc 41b4 203e 25bf 193d
000003e0: 00c2 283a cae3 00bd b388 083d 2a91 18bd
000003f0: 8802 403d c8dc 053d 7716 3cbd 33d4 fb3c
0.0011213481 0.03710214 0.025800383 0.017145647 0.006565362 -0.007422823 -0.0108854715 0.049228586
0.044131305 0.032192867 0.0031230212 -0.0041523813 0.026943883 0.031920187 0.21264906 0.07247505
-0.028415406 0.031286724 0.04924907 0.009347171 -0.001183509 0.0018792149 0.19987579 0.038420394
-0.01257522 0.054749966 0.289673 0.05606272 0.010706557 0.017126722 0.12820165 -0.00856915
0.00694423 0.0050112423 0.12197585 -0.025552312 0.024752105 -0.03913749 -0.00873937 -0.044810843
0.018968193 0.043556366 -0.05198233 0.04019014 -0.05274391 0.0053351554 0.28264868 0.02947763
0.04190348 0.015734816 0.24326438 0.040170286 -0.0021088826 0.052450366 0.24178258 0.01837212
0.025473712 -0.042201225 -0.741054 -0.021773988 0.0079315435 0.0070011737 0.10326351 -0.013376452
0.018330455 -0.0030044497 -0.028811514 0.024867082 0.17708188 0.083641075 0.48234895 -0.029067224
-0.019290958 -0.044027273 0.18324405 -0.018077107 0.008021048 0.041026693 0.16220294 0.020847965
0.017431434 -0.0066776862 0.21509188 0.011478727 -0.0074000726 0.037739445 0.19771248 -0.011201462
-0.028415505 0.0076719406 0.10580967 0.013451829 -0.014969334 0.013961228 0.1983432 0.07146072
0.037562788 -0.025600398 0.049881488 -0.01739273 0.049028553 0.04774651 0.042767417 0.041136336
0.03789717 0.011798024 0.04129963 0.043616056 0.001586063 -0.04891726 1.1034294 0.17613332
-0.014583026 -0.0028960367 0.34975508 0.0063951705 0.0383523 -0.024082053 0.033815473 -0.039149433
-0.010217135 0.020527232 0.27735618 0.06406262 0.0025344705 -0.02228428 0.321631 0.020213433
-0.054483928 0.038335998 0.8454784 -0.00815021 -0.050873276 -0.0005581971 0.17658821 0.018878462
0.018247342 0.03808597 0.1880474 0.04587523 -0.045377254 0.019745665 0.26658303 0.0283981
-0.033949703 -0.019178575 0.039668877 -0.010797716 -0.02072748 -0.045443095 -0.001897788 -0.04123797
-0.05147518 -0.0021615827 0.20908913 0.067273624 0.019345092 0.045790877 0.22370653 0.03133792
0.0046851756 0.04817765 0.04135105 0.004890293 -0.024871165 0.0048508407 -0.048066474 0.045508165
0.059054635 0.08514212 0.21138059 0.048896797 0.014319048 -0.0071174186 0.15423216 0.015716009
0.0060473913 0.035085816 0.19115296 0.07092146 -0.061968666 0.016073141 0.104677014 0.0017476134
-0.046025492 0.04943494 0.0070875944 0.018450981 0.019727265 -0.012300032 -0.013872201 0.0017919302
0.00424521 0.01130519 -0.041881096 -0.039266825 0.009328186 0.058411762 0.41811007 -0.023082392
0.016259683 -0.0045584203 0.023862828 0.024395252 0.065463 0.03524201 0.26753893 0.05020541
-0.030939013 0.0033444643 0.04159404 -0.010171831 0.009482724 0.027894085 -0.036684047 0.01899535
-0.026020607 0.045722447 0.43015963 0.05053009 -0.012062716 -0.035895523 0.026821686 -0.0065020146
-0.0012073278 -0.022980047 0.03522678 0.0073486627 -0.045609135 -0.0013452113 0.045267064 0.025203366
-0.03028071 0.03941172 0.24018498 0.050609242 0.009699452 0.03213794 -0.040635455 0.02119025
0.0038013041 -0.04711916 0.1463085 -0.016387772 -0.05684373 -0.016501507 0.15693761 0.037535805
0.00064375997 -0.031467237 0.03333349 -0.037247814 0.046877414 0.032681257 -0.04591986 0.030740833

fcs1.bias f4 [400]
00000000: 9009 9ebe c8e0 b9bd 64cb a6be 0922 ab3e
00000010: d05a 4ebd 59ee 3f3e 3be9 d43d 1af0 bf3e
00000020: 2dd2 d83e 745e 6fbe 3cac 70bc 82bd a83e
00000030: ec28 113e 7201 1a3d d9d7 1abe f184 f13e
00000040: 9057 20bd 33d3 36bd 8563 d93e a36e fe3e
00000050: 3400 b23e b347 493e d67d f73e ae34 9d3e
00000060: c0f2 17bc c446 b3be 881f dabd 5577 45bd
00000070: dfbe a93d 76fd e9be 9d64 c03e 91a1 163e
00000080: 58e1 863d 5f6a 2e3e 17bd c93e 5329 be3e
00000090: f4ae 2dbe 6808 4dbe 0a3f ec3e 7f11 9a3e
000000a0: 48bd 95be 3a79 d1be 3b25 5c3d 51d5 b53e
000000b0: 67a0 f63e 4a78 483e a004 ffbe e0c5 b7bd
000000c0: 4e54 e0be 1929 f1bc 6494 48be 5788 163e
000000d0: dc32 abbe 8a01 88be b453 043e 0ecd cbbe
000000e0: 0eca bdbe c03a bfbe 12c9 a73e 7e9a edbe
000000f0: b293 f03e 81ad d73e 0840 bfbd 043d 24be
00000100: 1fc4 8d39 6a81 d63d 605c 80bd e9ac 3b3b
00000110: 1878 00be 25b9 c63e 5555 873e 488c c6bd
00000120: 3449 debe ae56 cebe 1ff6 8f3e 1e97 043e
00000130: 2ab0 c7bc 280a 9fbd 4dea d93d 081c 9bbd
00000140: 7042 6ebd c891 41bc 2dc7 a23e 3251 21be
00000150: 0a24 a23e 0291 f73d d331 8f3e 52d8 afbe
00000160: 3425 bd3e 93c0 3d3e 8ec5 5b3e 6a99 c5be
00000170: 5a7d bc3e 39f9 c13c 3781 ab3d 08ea e73e
00000180: c216 d0be e2b7 8ebe c0e2 d4be d727 c83e
00000190: de49 393e 9e08 b0be fe14 eb3d 86b3 ff3e
000001a0: 0f84 373e cfa0 a73e ed4c 863e c89a d2be
000001b0: c0f9 c6be 19ea f33c b035 363d 0458 0a3e
000001c0: d6a1 f5be 78cf 45be 3083 79bd 6d1f 153e
000001d0: 2897 cebe 2c45 f3be f4de 61be e803 87bd
000001e0: 0ea8 88be a89a fabd c96f 013e 62f7 c73d
000001f0: 2ad1 bbbe d8f1 0abe 8010 d5bd c25e ecbe
00000200: 20fa f4bc 7690 b0be bedd adbe 4045 12be
00000210: 0543 eebc 2032 c63e 5855 fcbd c4a0 b23e
00000220: fb65 21be 3b5e 893e 7c2c 7bbe 0ce2 5bbe
00000230: 9ede d1be 8de1 76bd c82f debd 9efb 0f3e
00000240: cadf bf3e 9631 dcbe cca2 e23e 28af 08bd
00000250: 3442 9fbb 4796 9cbb 185b a0be 76ec d3be
00000260: 0460 d6be 3aa7 b93e c0dd c7bd 028a 9a3d
00000270: 606c efbd 1260 bd3e 6c02 b5be 00c7 9dbd
00000280: 4b25 ce3e c44b cfbd b809 22be bc78 a53d
00000290: 005f ccbe 38f3 74be b65d d9be 8388 da3e
000002a0: 04e1 77be 8afe a2be 2ad4 e7be a0be 8cbd
000002b0: 4c21 1f3e c6a5 b6be 7036 01be 611b c33e
000002c0: 2063 febd b025 38be b09f 38be 2e9f 86be
000002d0: f8b8 463e 0cc4 48be b430 fcbe 60d8 61bd
000002e0: 44ea 6cbe 748f cbbe 2215 f0be 1c5c cfbe
000002f0: 62ae f2be e8cb 67be ec9c 22bd 88d4 b73e
00000300: 7c5a dc3e 0828 25be 34e7 cd3e 9e79 9d3d
00000310: c0e2 2abd 8c0c 95be 673d 17be 56f3 c3be
00000320: 5168 c13e 5885 a0be 389c 913e 988b 093e
00000330: 29b3 9e3e cc22 62be b579 bb3e ad7c bc3d
00000340: 12bb c73e 5c58 e5be 7891 2ebe 08d4 48be
00000350: fedf 9bbe f035 95bd fae9 8ebe b01c 75be
00000360: 0098 cabd a0a0 4bbe 0f14 873e b09c 37be
00000370: 1060 97be 96d9 ecbe a262 a13e 8602 913e
00000380: b4da b7be ef8e 843e 06cd 1e3e 0367 cb3e
00000390: d245 0a3d 9f25 b53e 4508 c23e 1612 c0be
000003a0: 6db2 e53d 5fa8 6e3e 3e4a a6be e570 d33e
000003b0: a3ea fc3e 24f9 4dbe 9d87 843e b807 02be
000003c0: c0e6 8cbe 56e3 42bc 5754 293e cf3c fe3e
000003d0: 0aad 983e 6635 063e 0e31 27bd 5109 883e
000003e0: f627 f63e 6ccb 55be 84ad 8d3e cc4f 7dbe
000003f0: 8063 9ebe 7ec8 a63e 7254 7e3e b25a f9be
-0.3086667 -0.09076077 -0.3257705 0.33424404 -0.050379574 0.18743266 0.10396048 0.3748787
0.4234785 -0.23375875 -0.014689501 0.32957083 0.14175767 0.037599035 -0.15121402 0.4717174
-0.039146006 -0.04463501 0.4245874 0.49693784 0.3476578 0.19656257 0.48338193 0.30704254
-0.009274185 -0.35014927 -0.10650545 -0.048209507 0.08288359 -0.45701188 0.37576762 0.1471007
0.0658595 0.17032765 0.39402077 0.37140903 -0.1696127 -0.20022738 0.46141845 0.30091473
-0.29245973 -0.409128 0.053746443 0.3551431 0.48169252 0.19577137 -0.49808216 -0.089732885
-0.4381432 -0.029438542 -0.19587857 0.14700447 -0.3343724 -0.26563674 0.12922555 -0.39804882
-0.37068218 -0.3734951 0.32770592 -0.4640693 0.46987683 0.4212456 -0.09338385 -0.160389
0.00027039737 0.104739025 -0.06267619 0.0028636998 -0.12545812 0.3881313 0.2643229 -0.09694725
-0.43415225 -0.40300506 0.28117463 0.12948272 -0.024375994 -0.07765609 0.106403925 -0.07573706
-0.05816883 -0.011814542 0.31792584 -0.1575363 0.3166812 0.12088205 0.279677 -0.34344727
0.36942446 0.18530492 0.2146208 -0.38593608 0.36814386 0.023678409 0.08374255 0.4529574
-0.40642363 -0.27874666 -0.41579247 0.39092895 0.18094584 -0.34381574 0.11478613 0.49941653
0.1792147 0.32739875 0.26230565 -0.41133714 -0.3886242 0.029774712 0.044484794 0.13510138
-0.47975034 -0.19317424 -0.060916126 0.14562769 -0.40349698 -0.4751371 -0.22057706 -0.06592542
-0.26690716 -0.122365296 0.12640299 0.097639814 -0.36683017 -0.13568819 -0.10403538 -0.46166044
-0.029904425 -0.34485215 -0.33958238 -0.1428423 -0.029084692 0.38710117 -0.123209655 0.3488828
-0.15761559 0.26829705 -0.24528688 -0.21472949 -0.40990156 -0.060273696 -0.10848957 0.14060828
0.37475425 -0.4300658 0.4426483 -0.033370167 -0.004860187 -0.0047786566 -0.313195 -0.41391343
-0.4187013 0.36260396 -0.09759092 0.07545854 -0.11690593 0.36987358 -0.3535341 -0.07703972
0.40262827 -0.10121873 -0.1582402 0.08079669 -0.3991623 -0.23920906 -0.42454308 0.42682275
-0.2420693 -0.31834823 -0.45279056 -0.06872296 0.15540045 -0.3567335 -0.12618423 0.38106826
-0.1242125 -0.17983127 -0.18029666 -0.2629332 0.19406497 -0.19606036 -0.49255908 -0.055137992
-0.2313624 -0.39757884 -0.46891123 -0.4049996 -0.4739867 -0.22636378 -0.039700434 0.35904336
0.43037784 -0.16128552 0.40215456 0.07689212 -0.041720152 -0.29111135 -0.14769517 -0.38271588
0.377749 -0.31351733 0.28439498 0.13432157 0.30996063 -0.22083586 0.36616293 0.092034675
0.3900991 -0.44793975 -0.1704768 -0.19612134 -0.3044433 -0.072856784 -0.27912885 -0.23936725
-0.09892273 -0.19885492 0.2638249 -0.17930865 -0.29565477 -0.46259755 0.31520563 0.28322238
-0.35909045 0.258903 0.15507898 0.3972703 0.033757992 0.35380265 0.37896934 -0.37513798
0.11215673 0.23306416 -0.32478517 0.4129707 0.49397764 -0.20114571 0.25884715 -0.12698257
-0.27519798 -0.011895021 0.1653608 0.49655768 0.29819518 0.13106307 -0.040818267 0.26569608
0.48077363 -0.2087838 0.27671444 -0.24737471 -0.30935287 0.32574838 0.24836901 -0.48702008

fc2.weight f4 [300, 401]
00000000: 9e0a 24bd 413b e93b 5ed7 febb b28c 323d
00000010: 4d41 2b3d 533f 823c 5ff6 563d fc23 cb3a
00000020: 948a 923d 749a 61bc 9857 48bb 5d96 0b3d
00000030: 58c1 24bc 01e3 18bd 4480 ab3e abf7 513d
00000040: 65af 3fbc 5659 d1bc f2a7 583d dccd dc3c
00000050: 4641 603d 8642 4b3d cd80 28bc 8cfd 773d
00000060: 0eac a83c 458b eb3b ebd2 11bd 5d7b 6dbd
00000070: 2a0b 5f3d f7cb e53c 58b7 aa3c b6ae cf3b
00000080: 59e3 22be 19d0 22bd 013f 9c3d d386 953d
00000090: 1803 523d c986 c1bc 4d71 d7bb 0aef 683d
000000a0: 7f3d 24bd 6ab1 4c3d 1b19 bb3a f17e b0ba
000000b0: a4ba 533c e111 983d 2ef3 5e3d 82f9 b1bc
000000c0: 74ff 123d 5644 243d c281 54bd 9ebf cf3c
000000d0: ae32 e5bc af97 5b3d 91b8 893d 3255 59bd
000000e0: d2fc 48bc 6781 2dbc 119d b53c 15ba e53c
000000f0: 7332 bdbc fd65 b03c 0e47 0d3d 2c1a b7bc
00000100: 652d 903d bad0 673d e068 9cbc d696 863e
00000110: 5088 c73b 37a4 4c3d 08a6 62bc 1cac 1abd
00000120: 3719 d2bc f410 98bc 13db 563d f8a9 92be
00000130: 8506 f63b 5f85 af3d 83b6 d1bc e45e 5d3d
00000140: b465 1ebd 9c27 113e a855 583c 27e7 003f
00000150: dc07 c43b d8e4 503d 3be1 543d 8ac4 a7bc
00000160: e25b 04bd 16c3 34bd d325 c33d 1693 253d
00000170: 2083 c23c e4e3 25bd 3d1d a03c f160 7b3d
00000180: 0f87 443d 0e0f b8bb 4e96 183d e646 863c
00000190: bccf b13d 6a27 0d3d 19fb e9bc 442b 483d
000001a0: cbe6 15bd 2cba e43b 7d60 00bc 6fee efbc
000001b0: 1b7b a53c f8aa 9a3c f378 a3bc efea 56bb
000001c0: 0d08 b4bc ab01 103d 6f88 9ebc 0b4a 803d
000001d0: 321f 5fbd ae07 a4bc e821 3bbd af09 8c3c
000001e0: 75e6 f73c 6e7f 893a 6623 043d 3ba6 0f3d
000001f0: 3f82 5abd ee2f 88bc ab6a 46bc 5da8 c43c
00000200: 1ea6 1b3c c340 0a3d 39f7 1f3c 514e d2bc
00000210: d9d5 0c3c 9ecf 8c3d f2c7 45bc 3119 293d
00000220: a45b a43e e11a 8e3d a0b6 9cbc c66e d33c
00000230: 4054 b43c 5037 abbc 1e8f 0ebc 4ad1 1fbe
00000240: 3c1d 9a3d a880 edbc 922a 2c3c cd66 293d
00000250: 1df6 98bd 92bf 05bd 8c89 7c3c d527 60bd
00000260: 7547 053d 36b7 5e3d 297b 573b c229 3cbc
00000270: babd 1d3b 856c 503d fa7e d0bc be02 02bd
00000280: 7600 253d 4ce0 753e e3ce fb3c 95eb a6bc
00000290: af7b 4f3d 2849 e4be 4fc0 633d da50 843d
000002a0: e3c0 18bd 3239 c0bc 4c71 19bd 7bca 66bd
000002b0: 41fc af3d a0df 41bd 1bc4 63bc b7d1 95bc
000002c0: 0f4e dbbc f743 61bd d9e0 4abd 8a60 89bb
000002d0: 6f9a 653d bb01 e1bc b901 b7bb 7238 4ebb
000002e0: bbb1 2f3d 0c69 bebb 66c7 443d 49bf 62bd
000002f0: d903 a6bc 742b 63bc 9e34 b8bd d3d4 69bc
00000300: 3b2b e53c 5ec4 f13c 09db 6a3b ba9a cd3c
00000310: 2586 39bd 6b2a eb3c 6bf5 8f3e 3a0e 5dbc
00000320: 6fe2 9a3d 3359 6bbd 5309 873d 0786 bb3c
00000330: 546d 6d3c 4c34 69bc 121b 9f3d 7e7a 503c
00000340: 7cdc 0f3d c320 5abd 6a54 e33c 86fd 0b3d
00000350: 152d 503d 0ac0 bebc ee62 b33c 69e6 553c
00000360: 3ea8 333c 49c1 473d b60d ed3a a56e 013d
00000370: 8c7b a7bc 0750 bb3c e8c8 0dbd f4c7 883d
00000380: a7d1 56bd 877c b9bc 2bb0 a3bc 7e34 573d
00000390: 6023 4ebd 8bfc a0bc 8a41 633d b59d 6ebc
000003a0: 1394 ae3d a7d5 00bc a1f4 9ebc c014 933d
000003b0: ba9c 36bc d473 193d 3e3b c13d 9536 443d
000003c0: 0073 c03c 28ee 543e 3655 dd3c 1e3b 0bbd
000003d0: a7fd e8bc 204f b3bb 408a b6bd 1044 bc3c
000003e0: 4ca4 8f3d 5a85 43be f913 5c3c 5702 813b
000003f0: a1e6 363d 0117 c13c 04ce 3dbd eb8e 3d3d
-0.040049188 0.0071176593 -0.0077771386 0.04359121 0.041810323 0.015899336 0.05248105 0.0015498395
0.07155338 -0.013769735 -0.0030569788 0.034078944 -0.010055862 -0.037325863 0.33496296 0.051261585
-0.011699532 -0.025555294 0.05289454 0.02695363 0.05474975 0.04962399 -0.010284615 0.060544536
0.020589855 0.007188233 -0.035601538 -0.057978977 0.054454006 0.02805136 0.020839378 0.006337966
-0.15907039 -0.03974924 0.076292045 0.07301106 0.05127248 -0.02362384 -0.006574786 0.05686859
-0.04009771 0.049973883 0.001427445 -0.0013465566 0.012922917 0.07425285 0.054431133 -0.02172542
0.03588815 0.040104233 -0.05188156 0.025359925 -0.027978268 0.053611454 0.067246564 -0.053059764
-0.012267308 -0.010589934 0.022169622 0.028042832 -0.023095345 0.021533007 0.03449159 -0.022351347
0.07039908 0.05659554 -0.019092977 0.26286954 0.0060892478 0.049961295 -0.01383353 -0.037761793
-0.025646789 -0.018562771 0.05245502 -0.286453 0.0075081014 0.085703604 -0.025599724 0.054045573
-0.03867121 0.14175266 0.013204016 0.5035271 0.005982382 0.050999492 0.05197261 -0.02047946
-0.03231419 -0.04413136 0.09528699 0.040423475 0.023744166 -0.040500537 0.019545192 0.061371747
0.047980364 -0.005617029 0.037252717 0.016391229 0.086822 0.034461416 -0.028562116 0.048869386
-0.036597054 0.006980201 -0.007835505 -0.029288499 0.020200303 0.018880352 -0.019955134 -0.003279384
-0.021976495 0.03515784 -0.019352166 0.062641226 -0.05447311 -0.020023193 -0.045686632 0.017094461
0.030261258 0.0010490248 0.03226032 0.03507064 -0.05334687 -0.016624417 -0.012110393 0.024006063
0.009500055 0.033753168 0.009763532 -0.02567211 0.008595907 0.06875537 -0.012071596 0.04128379
0.32101166 0.069387205 -0.019130051 0.025809657 0.02201283 -0.020900398 -0.008701114 -0.15607181
0.07525107 -0.028992012 0.010508196 0.041357804 -0.074688174 -0.0326534 0.015413653 -0.054725487
0.03253885 0.054373942 0.0032879806 -0.011484565 0.0024069385 0.050884742 -0.025451172 -0.031740896
0.040283643 0.24011344 0.0307383 -0.020376006 0.050655063 -0.44587064 0.05560332 0.06460734
-0.037293326 -0.023464773 -0.037461564 -0.056345444 0.085930355 -0.047332406 -0.013901736 -0.018288476
-0.02677062 -0.054996457 -0.049530838 -0.0041924166 0.056055482 -0.027466645 -0.005584922 -0.003146675
0.042894106 -0.0058108624 0.048041724 -0.055358205 -0.020265507 -0.0138653405 -0.08994411 -0.014271933
0.027974715 0.02951258 0.0035836122 0.025098193 -0.045293946 0.02870675 0.28116927 -0.013492161
0.0756272 -0.057458114 0.06593575 0.022891058 0.014491398 -0.01423366 0.07768835 0.012724517
0.03512238 -0.0532539 0.027750213 0.034177326 0.050824244 -0.02328493 0.02189776 0.013055422
0.010965405 0.048768315 0.0018085751 0.03159966 -0.020444654 0.022865308 -0.034615427 0.06678763
-0.052446034 -0.022642387 -0.019981464 0.052540295 -0.050326705 -0.019651672 0.055482425 -0.0145639675
0.08524337 -0.007863439 -0.019403758 0.07181692 -0.011145765 0.037463978 0.09435128 0.047903616
0.023492336 0.20793974 0.02701817 -0.033991925 -0.028441263 -0.005472079 -0.08913088 0.022981673
0.07013759 -0.19093838 0.013432496 0.0039370465 0.04465354 0.02357054 -0.04633905 0.046278875

fc2.bias f4 [300]
00000000: 55bf 143d a0d9 303d b194 9f3c d6a7 09bd
00000010: 954f bfbc 87e0 ca3c 3c27 883d d400 2f3c
00000020: 125a 9b3d bd0d 853c 9d08 013d a32f 33bd
00000030: 9c66 b4bb 5207 27bd a5dc ecbb a959 84bc
00000040: 9fd0 37bb 8e7b 81bc e926 2abd 31fc a73b
00000050: 25e0 11bd 266e 973d f176 0bbc cd2e 243c
00000060: b67d 71bc 1934 453d 8a7a eb3c e94c 393d
00000070: ab36 46bd 115c 00bc 1bc6 833d 6797 86bc
00000080: 8398 803d 715b 0f3d b6eb 133d 3e72 4c3c
00000090: f99b 313d b09e 043d f2c4 fcbc 8d0f c4bc
000000a0: 7268 b43c 37b7 b8bc 1075 7cbc 7188 6abd
000000b0: 94d5 563d 7140 19bd 4096 ca3c e2fe 523d
000000c0: 756b 07bd 0445 e73c 340e 36bc a06b 9c3c
000000d0: 8874 003d b9b9 343d d30a cc3c 8e72 013d
000000e0: 5dbe 25bd ab7a 75bc 558e 31bd 8bb9 fcbc
000000f0: 1056 c4bc b261 893d 5486 b9bc faff 0abd
00000100: d9db 393d 8590 373d f20b 493d 9be2 093c
00000110: dc78 69bc 7f42 983d 5936 2a3d d729 243d
00000120: 340d 683d 737f 923d 90f4 b8bc 215f 1d3c
00000130: 72d7 29bd 2f9b 43bd d8a1 8f3d 0748 00bd
00000140: ea72 4a3d f8b8 15bd 3cda 37bc 2ad7 883d
00000150: b105 b03d 639c 2abd 0bf4 233d 97fe 973c
00000160: 5fdd 0b3d 0be0 8a3c 6375 3ebd 5a0f 54bc
00000170: b255 dc3a d11c f03c 4397 813c 8c95 123d
00000180: 657c 99bc b04d 0abd 0b4b be3c fb98 a83c
00000190: 15f0 ce3c d9d0 523c e0ed aabc 8905 f6bc
000001a0: ad43 6b3d 4d33 233d cfce 3f3c ad7b 8abc
000001b0: b957 073d df6c 25bc 404c 8d3c 2fdb c43c
000001c0: 81e6 e5bc 4b90 103c a5e3 0ebd ae0e 793d
000001d0: 1ae0 59bd 4191 843b d5af 963b e477 4dbc
000001e0: 9b26 cf3c 638c 1e3c 3fba f1bc e566 cb3c
000001f0: 2ece 37bd 3dda 603d 8bd8 a53c a73d cbbc
00000200: 1ec5 5bbc efad 7a3c 7c20 ab3d ead7 a93c
00000210: bd83 59bb 8ccb 953b ed6c e7bb 34c9 41bb
00000220: 5218 76bc da61 bc3c 9ff1 023d 6b2c 27bd
00000230: 61d8 43bd a936 113c 323b 6b3c a302 103a
00000240: 40e6 20bd 83df 8c3d 9f9d dcbc 69c7 07bd
00000250: a9c2 ab3c d8ab 0c3d 828d 563d 0ed7 fcbc
00000260: 3dc6 70bc 2951 7f3d b6f5 843a 8865 133b
00000270: 0da5 363d cb8f 3abd c5a2 46bd a9c4 1dbc
00000280: 41ba e93c 66af 85bc 71c2 e43a 212f 1a3d
00000290: 2d6b 433d 227d 3339 052f 91bc 3afa a13b
000002a0: e71d b73c 1367 b03c 19ec 523d 0403 273d
000002b0: 4f41 373c f53d 83bc fc23 93bb 1194 ad3c
000002c0: 3a37 ebbc d5bb 80bb 57a9 79bc c9e4 95bc
000002d0: 9ba8 24bd d3f5 69bc e580 2f3d 9147 113c
000002e0: 9220 de3c 126c 863c 558d f2bc 1072 6d3c
000002f0: 2c61 cd3c 41c5 603a d743 8c3c 4460 293d
00000300: 3108 2e3d 2f21 17bd a018 523d b35a dfbc
00000310: 391f 093c 9c54 433d 3767 8639 141b 083d
00000320: 2218 883c b8eb 01bd a178 233c c794 7f3c
00000330: 7c7e dcbc a4aa 24bc 20c4 e9bc 485f 203d
00000340: 2fcc a5bc b4f4 e33c a586 653c a037 043a
00000350: 1cb8 8abd 73d1 f33b be1e 143d 1154 1b3d
00000360: a8e0 dfbc 713f 3ebd 7b32 493c 291d 80ba
00000370: f2ec a33c b098 48bd 1b87 103c 13cb 95bc
00000380: 7928 833b 830e 373d 8b24 3ebc c2ea 46bc
00000390: 53b1 753c 1204 343c 7885 b4ba 4287 4c3d
000003a0: b0b1 95bc f162 8bbd d9ea acbc 4d50 10bd
000003b0: e492 033d aaf8 39bd 9284 2f3b 538f 9fbb
000003c0: dfc6 803d 871c 043d 61ab da3c 5d2b f4bb
000003d0: c101 aebc b13b 3cbd 59c0 813c cfe2 243d
000003e0: f07a 873d 464d 0f3d 474a 31bc 8280 13bd
000003f0: f1a2 883c 1f1a 853b bacf b438 d88e 423d
0.03631528 0.043176293 0.019480081 -0.033607326 -0.023353377 0.024765266 0.06648108 0.01068135
0.07585539 0.016241902 0.031502355 -0.0437466 -0.005505396 -0.040778466 -0.0072284513 -0.016156035
-0.0028047932 -0.015805986 -0.041541014 0.005126499 -0.03561415 0.07394056 -0.008512245 0.010020924
-0.0147394445 0.048145387 0.028744955 0.045239363 -0.04839198 -0.00783445 0.0643427 -0.016429616
0.06279089 0.034999315 0.036113463 0.012478409 0.043361638 0.0323779 -0.03085563 -0.023933196
0.02202246 -0.022548301 -0.015408769 -0.057259027 0.052449778 -0.03741497 0.024729848 0.051512606
-0.033061463 0.028231151 -0.011111785 0.019094288 0.031361133 0.04412243 0.024907505 0.03160339
-0.040464748 -0.01498286 -0.04334863 -0.030850193 -0.023966819 0.06708087 -0.02264706 -0.033935525
0.04537568 0.04481556 0.049083658 0.008415843 -0.0142500065 0.07434558 0.041555736 0.040078964
0.056653216 0.07153215 -0.022577554 0.0096052 -0.04146523 -0.047755416 0.07013291 -0.03131869
0.049425997 -0.036553353 -0.011221465 0.06681664 0.085948355 -0.04165305 0.04002766 0.018554015
0.034146663 0.016952535 -0.046498667 -0.012943113 0.0016810207 0.029310616 0.015819198 0.03578715
-0.018736074 -0.033765495 0.023229143 0.02058076 0.025260964 0.012867176 -0.02086538 -0.030031936
0.057437588 0.039843846 0.011707022 -0.016904676 0.033042643 -0.010096758 0.017248273 0.024030296
-0.028064014 0.008823465 -0.034885067 0.060805015 -0.053192236 0.004045636 0.0045985975 -0.012540791
0.025286963 0.0096770255 -0.029507754 0.024829337 -0.044874363 0.05489563 0.020244857 -0.024809672
-0.013413696 0.015300258 0.08355805 0.020732839 -0.0033190094 0.004571384 -0.0070625455 -0.002956939
-0.015020447 0.022995878 0.03196871 -0.040813845 -0.047813777 0.00886313 0.014357375 0.0005493557
-0.039282084 0.06878569 -0.026930628 -0.033149157 0.020966845 0.03434357 0.052381046 -0.030864265
-0.014695701 0.06233326 0.0010144028 0.0022490937 0.044591 -0.045547288 -0.048495073 -0.009629407
0.028531196 -0.016318988 0.0017452968 0.037642602 0.047709633 0.00017117386 -0.017722616 0.0049431594
0.022353126 0.021533525 0.05149469 0.04077436 0.011185004 -0.016020754 -0.0044903737 0.021188768
-0.028712858 -0.0039286413 -0.015238128 -0.01829757 -0.040199857 -0.0142798005 0.042847533 0.00886716
0.02711514 0.016408954 -0.029608408 0.014492527 0.02507075 0.0008574315 0.017122192 0.04135157
0.04248828 -0.03689688 0.051293015 -0.027264928 0.0083692605 0.04768811 0.00025635373 0.03322895
0.01661307 -0.03171894 0.009977491 0.015599436 -0.026915781 -0.0100504495 -0.028535903 0.039153367
-0.020238964 0.027826644 0.014009153 0.0005043689 -0.06773397 0.00744074 0.03616213 0.03792197
-0.027328804 -0.04644722 0.012280102 -0.0009774315 0.020010445 -0.04897374 0.008821274 -0.01828531
0.0040026275 0.044691574 -0.011605392 -0.012140932 0.014995891 0.010987299 -0.0013772687 0.04993368
-0.018273205 -0.06805981 -0.021108078 -0.03523283 0.032122508 -0.04540316 0.00267819 -0.0048693805
0.06287932 0.03225377 0.026693048 -0.0074514584 -0.02124107 -0.045955364 0.015838789 0.040255364
0.06615245 0.034985803 -0.010820932 -0.036011226 0.016679259 0.004061952 8.621761e-05 0.047499508

fc3.weight f4 [1, 300]
00000000: 5307 d73c 1bd9 23bb 00a2 c5ba a713 c23b
00000010: c271 bf3a 4994 063c 00f5 d53c 81cd 7e3b
00000020: 2d8a 283e 4d92 c839 debd f83b e215 21bb
00000030: 3e04 98b9 b2e3 ee39 55d7 ca3c b13f eeba
00000040: c31e a13d b8bd 36bb 8849 32bb 2d47 ba3c
00000050: 288c 07bb 8f2f a03c f0b0 d83b d23d 9a3b
00000060: e2f3 0e3e b85e 0f39 9ab6 8b3c dc68 633b
00000070: 1ea5 0fbb ee30 3cba e2ec a43c 3b40 733b
00000080: 9843 0e3e 174f d3b9 2b0e ed3b c8d4 38bb
00000090: 0013 303c c1c8 8d3b 9b52 cd3b 3eac 3f3a
000000a0: 5aca 9e3c 5fe8 b53b 414a 9a3c b465 853c
000000b0: aa72 be3c 8648 a33a 11e6 9d3b 73f0 093c
000000c0: a543 2bbb 6f4b 26bb f47e e73d 5ca8 a13b
000000d0: 37bd 0b3e 37d4 3d3c 279e 603a c265 903b
000000e0: 3e3b 9aba 88f9 433c 0625 b13b 358a 0cbb
000000f0: ad2e 913c cce0 d83c 0626 b03c 3e8f 793c
00000100: ca20 f53c 8866 fa3a eb43 cf3c 244c 223b
00000110: 3fff 093b 32bf f53c 25f8 933b 75f1 b83b
00000120: 296b 623c e788 8b3c 2de7 c53b 7671 8d3c
00000130: bd8e dfb9 0008 b63b 1fba 0d3e 86ac 0ebc
00000140: 3d32 1b3b 04a0 5c3a 6b66 a43b 5ece 1f3e
00000150: b55c 363e 0d13 ff3b 3ad6 913b 94cb f33c
00000160: 4cb7 14b9 352c df3b 190b dfba ddbf ea3c
00000170: 7271 b93b d5f1 473b ea05 3fbc cbbd 8b3c
00000180: 4ced 9a3a e1ea a1ba 87a0 daba 7cc1 dc3c
00000190: 5481 44bb 37ff 373c 6e85 a23a e109 54ba
000001a0: 82ff 2d3e 8127 04ba 4bb8 b03c 047f c3bb
000001b0: 0be6 4b3b 1798 2f3b faee 05b9 a786 223b
000001c0: 4ca9 313a 324e ef3a 4785 303b d83b 133c
000001d0: 9f8a 993b de76 f13a d52f 4d3b d799 a839
000001e0: d82a 603b 8346 8b3c 6dfe 323b da0f 083e
000001f0: 9923 ecbc 90fd a83c 30d0 4c3b 24ec 953a
00000200: cc71 43bb 9bf6 ab3b da2c 333e 7665 9a3b
00000210: f916 923a 5457 393b 8f21 093b fdfa b13b
00000220: 7565 d63c 3be4 fc3d 7c0f d33b 5a22 683b
00000230: 921a e13b e585 903a bd8f cf3b 8e08 e23c
00000240: 08b2 f43c 383f 9e3c 9967 233b 791a 10ba
00000250: c07e f53a 82a4 bb3b aaf8 053e 9612 faba
00000260: 450a ca3c 187f 803c 2d93 4c3b 4cf3 8c3c
00000270: bcaa cb3c 04e7 2abb 13f8 1d3b 349f af3c
00000280: 54f1 50ba e216 10bb 12c3 32bb 02eb 5bba
00000290: b178 0d3b fe7f ac3c 522c 4c39 14c6 153c
000002a0: ce9e c4ba 8851 213b e6f4 b63c 0be5 673c
000002b0: 0c7f a13b 1737 b03b 4a9f 0d3e c38f 843b
000002c0: 03f6 803b 6cea 963a bf6d 3b3b 1d34 023c
000002d0: c64d e23b 6af4 483c 4de1 193e 85f2 813b
000002e0: ef5c a33b c3e4 783b 4c13 ff39 b6f9 bb3d
000002f0: 221a 7c3c 83a5 cb3b 9b8d 9c3b 2428 863b
00000300: 8d5a 923c 8507 ee3b 74b1 af3c fded 8f3b
00000310: 54f5 a23a 3e2f 993c da07 bf3a ae20 00bb
00000320: 3b43 8d3c f6c8 9a37 c69b 963b ec20 a23b
00000330: 485b 9739 bed5 c13a 2c3d 5a3b cf2b d13b
00000340: 610b 963d 837b dc3c d3e5 08bd efbc 863b
00000350: 7ec9 37bc ba40 d93b a433 16bb b05e 8e3c
00000360: 8dfc 383c b6d2 213a df8d 5b3b 5e07 b03b
00000370: 9382 b33a 4b04 9c3b 33b3 2cbb 5c26 993c
00000380: 2243 b73c 65fa c63c c2f5 ca3a 9514 863c
00000390: cddc a43c 6561 683c fe9b 233e 9bf7 193e
000003a0: d3a7 d33d f855 c5bc e628 b13b 3724 933b
000003b0: 1264 793b b8ff 103a 11b2 eeb9 4b6a 09bb
000003c0: 831b b53c db71 3e3c 6bab bc3c 6dfb 043a
000003d0: 304d 443b aa96 5a3a 3f57 3f3c 8776 8cba
000003e0: 0849 2e3e 07e1 a43c eee1 923a 3e25 6a3b
000003f0: ab3b 1c3e f619 8f3b 465a 603b eae1 163e
0.02624861 -0.002500123 -0.0015078187 0.005922753 0.0014606046 0.008214065 0.026117802 0.0038879814
0.1645896 0.00038255975 0.0075909933 -0.0024579694 -0.0002899486 0.00045564544 0.024760881 -0.001817694
0.078671955 -0.0027884077 -0.0027204473 0.022739017 -0.0020682905 0.019553928 0.0066128895 0.0047070766
0.13960221 0.00013672828 0.017054845 0.0034699952 -0.0021918486 -0.0007178922 0.020132486 0.0037117142
0.13892972 -0.00040303983 0.007234355 -0.0028203 0.010746717 0.0043269102 0.006265951 0.0007311738
0.019383598 0.0055513824 0.018834235 0.016283847 0.023248035 0.0012457527 0.004818686 0.008419144
-0.0026132849 -0.0025374552 0.11303511 0.0049334 0.13646398 0.0115862405 0.00085684884 0.0044066617
-0.0011766923 0.011961348 0.005406025 -0.0021444682 0.017722452 0.026474379 0.021502506 0.0152319055
0.029922862 0.0019104043 0.02530094 0.0024764622 0.002105668 0.029998396 0.004515665 0.0056440183
0.013819494 0.017033054 0.006039521 0.017266016 -0.00042640223 0.005555153 0.13840531 -0.008708125
0.0023681067 0.0008416178 0.005017092 0.15606067 0.17808802 0.0077842535 0.0044505866 0.02976016
-0.00014182663 0.00681069 -0.0017016857 0.02865594 0.0056592757 0.0030509133 -0.011659125 0.017058274
0.0011819988 -0.0012353325 -0.0016679921 0.02694773 -0.0029984312 0.011230282 0.0012399384 -0.000808863
0.16992 -0.0005041287 0.021572253 -0.005966069 0.0031112458 0.0026793533 -0.00012772894 0.0024799497
0.00067772414 0.0018257557 0.0026934908 0.008986436 0.0046857144 0.0018422266 0.0031309028 0.00032158077
0.0034205224 0.017001396 0.0027312294 0.13287297 -0.028825568 0.02062872 0.003125202 0.0011438173
-0.0029822467 0.0052479035 0.17497578 0.004711802 0.0011145762 0.0028280811 0.0020924543 0.0054315315
0.026171425 0.12348219 0.006441055 0.0035420866 0.0068696225 0.0011026232 0.0063342736 0.02759197
0.029870048 0.019317254 0.0024933575 -0.0005497109 0.0018729791 0.005726398 0.13083139 -0.0019079025
0.0246631 0.015685603 0.0031215653 0.017205857 0.024861686 -0.0026077637 0.0024104163 0.021438219
-0.0007970531 -0.0021986295 -0.0027276915 -0.0008389206 0.002158683 0.021057125 0.00019471467 0.009141464
-0.0015000941 0.0024615247 0.022333574 0.014153729 0.0049284752 0.005377661 0.13830295 0.004045458
0.003935577 0.0011513955 0.002859935 0.007946995 0.006906244 0.012265304 0.15027352 0.003965678
0.004985444 0.003797815 0.00048651767 0.09178488 0.01538709 0.006214799 0.004777623 0.0040941406
0.017865444 0.00726408 0.021446921 0.004392384 0.0012432733 0.018699285 0.0014574484 -0.0019550729
0.017243972 1.845181e-05 0.0045962064 0.0049477722 0.00028868974 0.0014788432 0.0033300621 0.006383396
0.07326389 0.026914364 -0.033422302 0.004111878 -0.011217473 0.0066300305 -0.0022918964 0.017379135
0.011290682 0.0006173061 0.003350131 0.005371972 0.001369553 0.004761254 -0.0026351928 0.018695049
0.022370879 0.02428932 0.0015484618 0.016367236 0.020124817 0.014183377 0.15977475 0.1503586
0.10334744 -0.024088845 0.005406487 0.004490401 0.0038054031 0.0005531269 -0.00045527567 -0.0020967897
0.022107845 0.011623825 0.023030957 0.0005072866 0.0029953234 0.0008338491 0.011678516 -0.0010716476
0.17020047 0.020126833 0.0011206248 0.0035727764 0.15257137 0.0043671085 0.0034233495 0.14734617
